{"class_name": "Model", "config": {"name": "face_model", "layers": [{"class_name": "InputLayer", "config": {"batch_input_shape": [null, 160, 160, 3], "dtype": "float32", "sparse": false, "ragged": false, "name": "input_1"}, "name": "input_1", "inbound_nodes": []}, {"class_name": "Model", "config": {"name": "model", "layers": [{"class_name": "InputLayer", "config": {"batch_input_shape": [null, 160, 160, 3], "dtype": "float32", "sparse": false, "ragged": false, "name": "input_6"}, "name": "input_6", "inbound_nodes": []}, {"class_name": "Conv2D", "config": {"name": "Conv2d_1a_3x3", "trainable": false, "dtype": "float32", "filters": 32, "kernel_size": [3, 3], "strides": [2, 2], "padding": "valid", "data_format": "channels_last", "dilation_rate": [1, 1], "activation": "linear", "use_bias": false, "kernel_initializer": {"class_name": "GlorotUniform", "config": {"seed": null}}, "bias_initializer": {"class_name": "Zeros", "config": {}}, "kernel_regularizer": null, "bias_regularizer": null, "activity_regularizer": null, "kernel_constraint": null, "bias_constraint": null}, "name": "Conv2d_1a_3x3", "inbound_nodes": [[["input_6", 0, 0, {}]]]}, {"class_name": "BatchNormalization", "config": {"name": "Conv2d_1a_3x3_BatchNorm", "trainable": false, "dtype": "float32", "axis": [3], "momentum": 0.995, "epsilon": 0.001, "center": true, "scale": false, "beta_initializer": {"class_name": "Zeros", "config": {}}, "gamma_initializer": {"class_name": "Ones", "config": {}}, "moving_mean_initializer": {"class_name": "Zeros", "config": {}}, "moving_variance_initializer": {"class_name": "Ones", "config": {}}, "beta_regularizer": null, "gamma_regularizer": null, "beta_constraint": null, "gamma_constraint": null}, "name": "Conv2d_1a_3x3_BatchNorm", "inbound_nodes": [[["Conv2d_1a_3x3", 0, 0, {}]]]}, {"class_name": "Activation", "config": {"name": "Conv2d_1a_3x3_Activation", "trainable": false, "dtype": "float32", "activation": "relu"}, "name": "Conv2d_1a_3x3_Activation", "inbound_nodes": [[["Conv2d_1a_3x3_BatchNorm", 0, 0, {}]]]}, {"class_name": "Conv2D", "config": {"name": "Conv2d_2a_3x3", "trainable": false, "dtype": "float32", "filters": 32, "kernel_size": [3, 3], "strides": [1, 1], "padding": "valid", "data_format": "channels_last", "dilation_rate": [1, 1], "activation": "linear", "use_bias": false, "kernel_initializer": {"class_name": "GlorotUniform", "config": {"seed": null}}, "bias_initializer": {"class_name": "Zeros", "config": {}}, "kernel_regularizer": null, "bias_regularizer": null, "activity_regularizer": null, "kernel_constraint": null, "bias_constraint": null}, "name": "Conv2d_2a_3x3", "inbound_nodes": [[["Conv2d_1a_3x3_Activation", 0, 0, {}]]]}, {"class_name": "BatchNormalization", "config": {"name": "Conv2d_2a_3x3_BatchNorm", "trainable": false, "dtype": "float32", "axis": [3], "momentum": 0.995, "epsilon": 0.001, "center": true, "scale": false, "beta_initializer": {"class_name": "Zeros", "config": {}}, "gamma_initializer": {"class_name": "Ones", "config": {}}, "moving_mean_initializer": {"class_name": "Zeros", "config": {}}, "moving_variance_initializer": {"class_name": "Ones", "config": {}}, "beta_regularizer": null, "gamma_regularizer": null, "beta_constraint": null, "gamma_constraint": null}, "name": "Conv2d_2a_3x3_BatchNorm", "inbound_nodes": [[["Conv2d_2a_3x3", 0, 0, {}]]]}, {"class_name": "Activation", "config": {"name": "Conv2d_2a_3x3_Activation", "trainable": false, "dtype": "float32", "activation": "relu"}, "name": "Conv2d_2a_3x3_Activation", "inbound_nodes": [[["Conv2d_2a_3x3_BatchNorm", 0, 0, {}]]]}, {"class_name": "Conv2D", "config": {"name": "Conv2d_2b_3x3", "trainable": false, "dtype": "float32", "filters": 64, "kernel_size": [3, 3], "strides": [1, 1], "padding": "same", "data_format": "channels_last", "dilation_rate": [1, 1], "activation": "linear", "use_bias": false, "kernel_initializer": {"class_name": "GlorotUniform", "config": {"seed": null}}, "bias_initializer": {"class_name": "Zeros", "config": {}}, "kernel_regularizer": null, "bias_regularizer": null, "activity_regularizer": null, "kernel_constraint": null, "bias_constraint": null}, "name": "Conv2d_2b_3x3", "inbound_nodes": [[["Conv2d_2a_3x3_Activation", 0, 0, {}]]]}, {"class_name": "BatchNormalization", "config": {"name": "Conv2d_2b_3x3_BatchNorm", "trainable": false, "dtype": "float32", "axis": [3], "momentum": 0.995, "epsilon": 0.001, "center": true, "scale": false, "beta_initializer": {"class_name": "Zeros", "config": {}}, "gamma_initializer": {"class_name": "Ones", "config": {}}, "moving_mean_initializer": {"class_name": "Zeros", "config": {}}, "moving_variance_initializer": {"class_name": "Ones", "config": {}}, "beta_regularizer": null, "gamma_regularizer": null, "beta_constraint": null, "gamma_constraint": null}, "name": "Conv2d_2b_3x3_BatchNorm", "inbound_nodes": [[["Conv2d_2b_3x3", 0, 0, {}]]]}, {"class_name": "Activation", "config": {"name": "Conv2d_2b_3x3_Activation", "trainable": false, "dtype": "float32", "activation": "relu"}, "name": "Conv2d_2b_3x3_Activation", "inbound_nodes": [[["Conv2d_2b_3x3_BatchNorm", 0, 0, {}]]]}, {"class_name": "MaxPooling2D", "config": {"name": "MaxPool_3a_3x3", "trainable": false, "dtype": "float32", "pool_size": [3, 3], "padding": "valid", "strides": [2, 2], "data_format": "channels_last"}, "name": "MaxPool_3a_3x3", "inbound_nodes": [[["Conv2d_2b_3x3_Activation", 0, 0, {}]]]}, {"class_name": "Conv2D", "config": {"name": "Conv2d_3b_1x1", "trainable": false, "dtype": "float32", "filters": 80, "kernel_size": [1, 1], "strides": [1, 1], "padding": "valid", "data_format": "channels_last", "dilation_rate": [1, 1], "activation": "linear", "use_bias": false, "kernel_initializer": {"class_name": "GlorotUniform", "config": {"seed": null}}, "bias_initializer": {"class_name": "Zeros", "config": {}}, "kernel_regularizer": null, "bias_regularizer": null, "activity_regularizer": null, "kernel_constraint": null, "bias_constraint": null}, "name": "Conv2d_3b_1x1", "inbound_nodes": [[["MaxPool_3a_3x3", 0, 0, {}]]]}, {"class_name": "BatchNormalization", "config": {"name": "Conv2d_3b_1x1_BatchNorm", "trainable": false, "dtype": "float32", "axis": [3], "momentum": 0.995, "epsilon": 0.001, "center": true, "scale": false, "beta_initializer": {"class_name": "Zeros", "config": {}}, "gamma_initializer": {"class_name": "Ones", "config": {}}, "moving_mean_initializer": {"class_name": "Zeros", "config": {}}, "moving_variance_initializer": {"class_name": "Ones", "config": {}}, "beta_regularizer": null, "gamma_regularizer": null, "beta_constraint": null, "gamma_constraint": null}, "name": "Conv2d_3b_1x1_BatchNorm", "inbound_nodes": [[["Conv2d_3b_1x1", 0, 0, {}]]]}, {"class_name": "Activation", "config": {"name": "Conv2d_3b_1x1_Activation", "trainable": false, "dtype": "float32", "activation": "relu"}, "name": "Conv2d_3b_1x1_Activation", "inbound_nodes": [[["Conv2d_3b_1x1_BatchNorm", 0, 0, {}]]]}, {"class_name": "Conv2D", "config": {"name": "Conv2d_4a_3x3", "trainable": false, "dtype": "float32", "filters": 192, "kernel_size": [3, 3], "strides": [1, 1], "padding": "valid", "data_format": "channels_last", "dilation_rate": [1, 1], "activation": "linear", "use_bias": false, "kernel_initializer": {"class_name": "GlorotUniform", "config": {"seed": null}}, "bias_initializer": {"class_name": "Zeros", "config": {}}, "kernel_regularizer": null, "bias_regularizer": null, "activity_regularizer": null, "kernel_constraint": null, "bias_constraint": null}, "name": "Conv2d_4a_3x3", "inbound_nodes": [[["Conv2d_3b_1x1_Activation", 0, 0, {}]]]}, {"class_name": "BatchNormalization", "config": {"name": "Conv2d_4a_3x3_BatchNorm", "trainable": false, "dtype": "float32", "axis": [3], "momentum": 0.995, "epsilon": 0.001, "center": true, "scale": false, "beta_initializer": {"class_name": "Zeros", "config": {}}, "gamma_initializer": {"class_name": "Ones", "config": {}}, "moving_mean_initializer": {"class_name": "Zeros", "config": {}}, "moving_variance_initializer": {"class_name": "Ones", "config": {}}, "beta_regularizer": null, "gamma_regularizer": null, "beta_constraint": null, "gamma_constraint": null}, "name": "Conv2d_4a_3x3_BatchNorm", "inbound_nodes": [[["Conv2d_4a_3x3", 0, 0, {}]]]}, {"class_name": "Activation", "config": {"name": "Conv2d_4a_3x3_Activation", "trainable": false, "dtype": "float32", "activation": "relu"}, "name": "Conv2d_4a_3x3_Activation", "inbound_nodes": [[["Conv2d_4a_3x3_BatchNorm", 0, 0, {}]]]}, {"class_name": "Conv2D", "config": {"name": "Conv2d_4b_3x3", "trainable": false, "dtype": "float32", "filters": 256, "kernel_size": [3, 3], "strides": [2, 2], "padding": "valid", "data_format": "channels_last", "dilation_rate": [1, 1], "activation": "linear", "use_bias": false, "kernel_initializer": {"class_name": "GlorotUniform", "config": {"seed": null}}, "bias_initializer": {"class_name": "Zeros", "config": {}}, "kernel_regularizer": null, "bias_regularizer": null, "activity_regularizer": null, "kernel_constraint": null, "bias_constraint": null}, "name": "Conv2d_4b_3x3", "inbound_nodes": [[["Conv2d_4a_3x3_Activation", 0, 0, {}]]]}, {"class_name": "BatchNormalization", "config": {"name": "Conv2d_4b_3x3_BatchNorm", "trainable": false, "dtype": "float32", "axis": [3], "momentum": 0.995, "epsilon": 0.001, "center": true, "scale": false, "beta_initializer": {"class_name": "Zeros", "config": {}}, "gamma_initializer": {"class_name": "Ones", "config": {}}, "moving_mean_initializer": {"class_name": "Zeros", "config": {}}, "moving_variance_initializer": {"class_name": "Ones", "config": {}}, "beta_regularizer": null, "gamma_regularizer": null, "beta_constraint": null, "gamma_constraint": null}, "name": "Conv2d_4b_3x3_BatchNorm", "inbound_nodes": [[["Conv2d_4b_3x3", 0, 0, {}]]]}, {"class_name": "Activation", "config": {"name": "Conv2d_4b_3x3_Activation", "trainable": false, "dtype": "float32", "activation": "relu"}, "name": "Conv2d_4b_3x3_Activation", "inbound_nodes": [[["Conv2d_4b_3x3_BatchNorm", 0, 0, {}]]]}, {"class_name": "Conv2D", "config": {"name": "Block35_1_Branch_2_Conv2d_0a_1x1", "trainable": false, "dtype": "float32", "filters": 32, "kernel_size": [1, 1], "strides": [1, 1], "padding": "same", "data_format": "channels_last", "dilation_rate": [1, 1], "activation": "linear", "use_bias": false, "kernel_initializer": {"class_name": "GlorotUniform", "config": {"seed": null}}, "bias_initializer": {"class_name": "Zeros", "config": {}}, "kernel_regularizer": null, "bias_regularizer": null, "activity_regularizer": null, "kernel_constraint": null, "bias_constraint": null}, "name": "Block35_1_Branch_2_Conv2d_0a_1x1", "inbound_nodes": [[["Conv2d_4b_3x3_Activation", 0, 0, {}]]]}, {"class_name": "BatchNormalization", "config": {"name": "Block35_1_Branch_2_Conv2d_0a_1x1_BatchNorm", "trainable": false, "dtype": "float32", "axis": [3], "momentum": 0.995, "epsilon": 0.001, "center": true, "scale": false, "beta_initializer": {"class_name": "Zeros", "config": {}}, "gamma_initializer": {"class_name": "Ones", "config": {}}, "moving_mean_initializer": {"class_name": "Zeros", "config": {}}, "moving_variance_initializer": {"class_name": "Ones", "config": {}}, "beta_regularizer": null, "gamma_regularizer": null, "beta_constraint": null, "gamma_constraint": null}, "name": "Block35_1_Branch_2_Conv2d_0a_1x1_BatchNorm", "inbound_nodes": [[["Block35_1_Branch_2_Conv2d_0a_1x1", 0, 0, {}]]]}, {"class_name": "Activation", "config": {"name": "Block35_1_Branch_2_Conv2d_0a_1x1_Activation", "trainable": false, "dtype": "float32", "activation": "relu"}, "name": "Block35_1_Branch_2_Conv2d_0a_1x1_Activation", "inbound_nodes": [[["Block35_1_Branch_2_Conv2d_0a_1x1_BatchNorm", 0, 0, {}]]]}, {"class_name": "Conv2D", "config": {"name": "Block35_1_Branch_1_Conv2d_0a_1x1", "trainable": false, "dtype": "float32", "filters": 32, "kernel_size": [1, 1], "strides": [1, 1], "padding": "same", "data_format": "channels_last", "dilation_rate": [1, 1], "activation": "linear", "use_bias": false, "kernel_initializer": {"class_name": "GlorotUniform", "config": {"seed": null}}, "bias_initializer": {"class_name": "Zeros", "config": {}}, "kernel_regularizer": null, "bias_regularizer": null, "activity_regularizer": null, "kernel_constraint": null, "bias_constraint": null}, "name": "Block35_1_Branch_1_Conv2d_0a_1x1", "inbound_nodes": [[["Conv2d_4b_3x3_Activation", 0, 0, {}]]]}, {"class_name": "Conv2D", "config": {"name": "Block35_1_Branch_2_Conv2d_0b_3x3", "trainable": false, "dtype": "float32", "filters": 32, "kernel_size": [3, 3], "strides": [1, 1], "padding": "same", "data_format": "channels_last", "dilation_rate": [1, 1], "activation": "linear", "use_bias": false, "kernel_initializer": {"class_name": "GlorotUniform", "config": {"seed": null}}, "bias_initializer": {"class_name": "Zeros", "config": {}}, "kernel_regularizer": null, "bias_regularizer": null, "activity_regularizer": null, "kernel_constraint": null, "bias_constraint": null}, "name": "Block35_1_Branch_2_Conv2d_0b_3x3", "inbound_nodes": [[["Block35_1_Branch_2_Conv2d_0a_1x1_Activation", 0, 0, {}]]]}, {"class_name": "BatchNormalization", "config": {"name": "Block35_1_Branch_1_Conv2d_0a_1x1_BatchNorm", "trainable": false, "dtype": "float32", "axis": [3], "momentum": 0.995, "epsilon": 0.001, "center": true, "scale": false, "beta_initializer": {"class_name": "Zeros", "config": {}}, "gamma_initializer": {"class_name": "Ones", "config": {}}, "moving_mean_initializer": {"class_name": "Zeros", "config": {}}, "moving_variance_initializer": {"class_name": "Ones", "config": {}}, "beta_regularizer": null, "gamma_regularizer": null, "beta_constraint": null, "gamma_constraint": null}, "name": "Block35_1_Branch_1_Conv2d_0a_1x1_BatchNorm", "inbound_nodes": [[["Block35_1_Branch_1_Conv2d_0a_1x1", 0, 0, {}]]]}, {"class_name": "BatchNormalization", "config": {"name": "Block35_1_Branch_2_Conv2d_0b_3x3_BatchNorm", "trainable": false, "dtype": "float32", "axis": [3], "momentum": 0.995, "epsilon": 0.001, "center": true, "scale": false, "beta_initializer": {"class_name": "Zeros", "config": {}}, "gamma_initializer": {"class_name": "Ones", "config": {}}, "moving_mean_initializer": {"class_name": "Zeros", "config": {}}, "moving_variance_initializer": {"class_name": "Ones", "config": {}}, "beta_regularizer": null, "gamma_regularizer": null, "beta_constraint": null, "gamma_constraint": null}, "name": "Block35_1_Branch_2_Conv2d_0b_3x3_BatchNorm", "inbound_nodes": [[["Block35_1_Branch_2_Conv2d_0b_3x3", 0, 0, {}]]]}, {"class_name": "Activation", "config": {"name": "Block35_1_Branch_1_Conv2d_0a_1x1_Activation", "trainable": false, "dtype": "float32", "activation": "relu"}, "name": "Block35_1_Branch_1_Conv2d_0a_1x1_Activation", "inbound_nodes": [[["Block35_1_Branch_1_Conv2d_0a_1x1_BatchNorm", 0, 0, {}]]]}, {"class_name": "Activation", "config": {"name": "Block35_1_Branch_2_Conv2d_0b_3x3_Activation", "trainable": false, "dtype": "float32", "activation": "relu"}, "name": "Block35_1_Branch_2_Conv2d_0b_3x3_Activation", "inbound_nodes": [[["Block35_1_Branch_2_Conv2d_0b_3x3_BatchNorm", 0, 0, {}]]]}, {"class_name": "Conv2D", "config": {"name": "Block35_1_Branch_0_Conv2d_1x1", "trainable": false, "dtype": "float32", "filters": 32, "kernel_size": [1, 1], "strides": [1, 1], "padding": "same", "data_format": "channels_last", "dilation_rate": [1, 1], "activation": "linear", "use_bias": false, "kernel_initializer": {"class_name": "GlorotUniform", "config": {"seed": null}}, "bias_initializer": {"class_name": "Zeros", "config": {}}, "kernel_regularizer": null, "bias_regularizer": null, "activity_regularizer": null, "kernel_constraint": null, "bias_constraint": null}, "name": "Block35_1_Branch_0_Conv2d_1x1", "inbound_nodes": [[["Conv2d_4b_3x3_Activation", 0, 0, {}]]]}, {"class_name": "Conv2D", "config": {"name": "Block35_1_Branch_1_Conv2d_0b_3x3", "trainable": false, "dtype": "float32", "filters": 32, "kernel_size": [3, 3], "strides": [1, 1], "padding": "same", "data_format": "channels_last", "dilation_rate": [1, 1], "activation": "linear", "use_bias": false, "kernel_initializer": {"class_name": "GlorotUniform", "config": {"seed": null}}, "bias_initializer": {"class_name": "Zeros", "config": {}}, "kernel_regularizer": null, "bias_regularizer": null, "activity_regularizer": null, "kernel_constraint": null, "bias_constraint": null}, "name": "Block35_1_Branch_1_Conv2d_0b_3x3", "inbound_nodes": [[["Block35_1_Branch_1_Conv2d_0a_1x1_Activation", 0, 0, {}]]]}, {"class_name": "Conv2D", "config": {"name": "Block35_1_Branch_2_Conv2d_0c_3x3", "trainable": false, "dtype": "float32", "filters": 32, "kernel_size": [3, 3], "strides": [1, 1], "padding": "same", "data_format": "channels_last", "dilation_rate": [1, 1], "activation": "linear", "use_bias": false, "kernel_initializer": {"class_name": "GlorotUniform", "config": {"seed": null}}, "bias_initializer": {"class_name": "Zeros", "config": {}}, "kernel_regularizer": null, "bias_regularizer": null, "activity_regularizer": null, "kernel_constraint": null, "bias_constraint": null}, "name": "Block35_1_Branch_2_Conv2d_0c_3x3", "inbound_nodes": [[["Block35_1_Branch_2_Conv2d_0b_3x3_Activation", 0, 0, {}]]]}, {"class_name": "BatchNormalization", "config": {"name": "Block35_1_Branch_0_Conv2d_1x1_BatchNorm", "trainable": false, "dtype": "float32", "axis": [3], "momentum": 0.995, "epsilon": 0.001, "center": true, "scale": false, "beta_initializer": {"class_name": "Zeros", "config": {}}, "gamma_initializer": {"class_name": "Ones", "config": {}}, "moving_mean_initializer": {"class_name": "Zeros", "config": {}}, "moving_variance_initializer": {"class_name": "Ones", "config": {}}, "beta_regularizer": null, "gamma_regularizer": null, "beta_constraint": null, "gamma_constraint": null}, "name": "Block35_1_Branch_0_Conv2d_1x1_BatchNorm", "inbound_nodes": [[["Block35_1_Branch_0_Conv2d_1x1", 0, 0, {}]]]}, {"class_name": "BatchNormalization", "config": {"name": "Block35_1_Branch_1_Conv2d_0b_3x3_BatchNorm", "trainable": false, "dtype": "float32", "axis": [3], "momentum": 0.995, "epsilon": 0.001, "center": true, "scale": false, "beta_initializer": {"class_name": "Zeros", "config": {}}, "gamma_initializer": {"class_name": "Ones", "config": {}}, "moving_mean_initializer": {"class_name": "Zeros", "config": {}}, "moving_variance_initializer": {"class_name": "Ones", "config": {}}, "beta_regularizer": null, "gamma_regularizer": null, "beta_constraint": null, "gamma_constraint": null}, "name": "Block35_1_Branch_1_Conv2d_0b_3x3_BatchNorm", "inbound_nodes": [[["Block35_1_Branch_1_Conv2d_0b_3x3", 0, 0, {}]]]}, {"class_name": "BatchNormalization", "config": {"name": "Block35_1_Branch_2_Conv2d_0c_3x3_BatchNorm", "trainable": false, "dtype": "float32", "axis": [3], "momentum": 0.995, "epsilon": 0.001, "center": true, "scale": false, "beta_initializer": {"class_name": "Zeros", "config": {}}, "gamma_initializer": {"class_name": "Ones", "config": {}}, "moving_mean_initializer": {"class_name": "Zeros", "config": {}}, "moving_variance_initializer": {"class_name": "Ones", "config": {}}, "beta_regularizer": null, "gamma_regularizer": null, "beta_constraint": null, "gamma_constraint": null}, "name": "Block35_1_Branch_2_Conv2d_0c_3x3_BatchNorm", "inbound_nodes": [[["Block35_1_Branch_2_Conv2d_0c_3x3", 0, 0, {}]]]}, {"class_name": "Activation", "config": {"name": "Block35_1_Branch_0_Conv2d_1x1_Activation", "trainable": false, "dtype": "float32", "activation": "relu"}, "name": "Block35_1_Branch_0_Conv2d_1x1_Activation", "inbound_nodes": [[["Block35_1_Branch_0_Conv2d_1x1_BatchNorm", 0, 0, {}]]]}, {"class_name": "Activation", "config": {"name": "Block35_1_Branch_1_Conv2d_0b_3x3_Activation", "trainable": false, "dtype": "float32", "activation": "relu"}, "name": "Block35_1_Branch_1_Conv2d_0b_3x3_Activation", "inbound_nodes": [[["Block35_1_Branch_1_Conv2d_0b_3x3_BatchNorm", 0, 0, {}]]]}, {"class_name": "Activation", "config": {"name": "Block35_1_Branch_2_Conv2d_0c_3x3_Activation", "trainable": false, "dtype": "float32", "activation": "relu"}, "name": "Block35_1_Branch_2_Conv2d_0c_3x3_Activation", "inbound_nodes": [[["Block35_1_Branch_2_Conv2d_0c_3x3_BatchNorm", 0, 0, {}]]]}, {"class_name": "Concatenate", "config": {"name": "Block35_1_Concatenate", "trainable": false, "dtype": "float32", "axis": 3}, "name": "Block35_1_Concatenate", "inbound_nodes": [[["Block35_1_Branch_0_Conv2d_1x1_Activation", 0, 0, {}], ["Block35_1_Branch_1_Conv2d_0b_3x3_Activation", 0, 0, {}], ["Block35_1_Branch_2_Conv2d_0c_3x3_Activation", 0, 0, {}]]]}, {"class_name": "Conv2D", "config": {"name": "Block35_1_Conv2d_1x1", "trainable": false, "dtype": "float32", "filters": 256, "kernel_size": [1, 1], "strides": [1, 1], "padding": "same", "data_format": "channels_last", "dilation_rate": [1, 1], "activation": "linear", "use_bias": true, "kernel_initializer": {"class_name": "GlorotUniform", "config": {"seed": null}}, "bias_initializer": {"class_name": "Zeros", "config": {}}, "kernel_regularizer": null, "bias_regularizer": null, "activity_regularizer": null, "kernel_constraint": null, "bias_constraint": null}, "name": "Block35_1_Conv2d_1x1", "inbound_nodes": [[["Block35_1_Concatenate", 0, 0, {}]]]}, {"class_name": "Lambda", "config": {"name": "lambda_21", "trainable": false, "dtype": "float32", "function": ["4wIAAAAAAAAAAAAAAAIAAAACAAAAQwAAAHMIAAAAfAB8ARQAUwApAU6pACkC2gF42gVzY2FsZXIB\nAAAAcgEAAAD6DnNyYy9mYWNlbmV0LnB52gdzY2FsaW5nEAAAAHMCAAAAAAE=\n", null, null], "function_type": "lambda", "module": "__main__", "output_shape": [17, 17, 256], "output_shape_type": "raw", "output_shape_module": null, "arguments": {"scale": 0.17}}, "name": "lambda_21", "inbound_nodes": [[["Block35_1_Conv2d_1x1", 0, 0, {}]]]}, {"class_name": "Add", "config": {"name": "add_21", "trainable": false, "dtype": "float32"}, "name": "add_21", "inbound_nodes": [[["Conv2d_4b_3x3_Activation", 0, 0, {}], ["lambda_21", 0, 0, {}]]]}, {"class_name": "Activation", "config": {"name": "Block35_1_Activation", "trainable": false, "dtype": "float32", "activation": "relu"}, "name": "Block35_1_Activation", "inbound_nodes": [[["add_21", 0, 0, {}]]]}, {"class_name": "Conv2D", "config": {"name": "Block35_2_Branch_2_Conv2d_0a_1x1", "trainable": false, "dtype": "float32", "filters": 32, "kernel_size": [1, 1], "strides": [1, 1], "padding": "same", "data_format": "channels_last", "dilation_rate": [1, 1], "activation": "linear", "use_bias": false, "kernel_initializer": {"class_name": "GlorotUniform", "config": {"seed": null}}, "bias_initializer": {"class_name": "Zeros", "config": {}}, "kernel_regularizer": null, "bias_regularizer": null, "activity_regularizer": null, "kernel_constraint": null, "bias_constraint": null}, "name": "Block35_2_Branch_2_Conv2d_0a_1x1", "inbound_nodes": [[["Block35_1_Activation", 0, 0, {}]]]}, {"class_name": "BatchNormalization", "config": {"name": "Block35_2_Branch_2_Conv2d_0a_1x1_BatchNorm", "trainable": false, "dtype": "float32", "axis": [3], "momentum": 0.995, "epsilon": 0.001, "center": true, "scale": false, "beta_initializer": {"class_name": "Zeros", "config": {}}, "gamma_initializer": {"class_name": "Ones", "config": {}}, "moving_mean_initializer": {"class_name": "Zeros", "config": {}}, "moving_variance_initializer": {"class_name": "Ones", "config": {}}, "beta_regularizer": null, "gamma_regularizer": null, "beta_constraint": null, "gamma_constraint": null}, "name": "Block35_2_Branch_2_Conv2d_0a_1x1_BatchNorm", "inbound_nodes": [[["Block35_2_Branch_2_Conv2d_0a_1x1", 0, 0, {}]]]}, {"class_name": "Activation", "config": {"name": "Block35_2_Branch_2_Conv2d_0a_1x1_Activation", "trainable": false, "dtype": "float32", "activation": "relu"}, "name": "Block35_2_Branch_2_Conv2d_0a_1x1_Activation", "inbound_nodes": [[["Block35_2_Branch_2_Conv2d_0a_1x1_BatchNorm", 0, 0, {}]]]}, {"class_name": "Conv2D", "config": {"name": "Block35_2_Branch_1_Conv2d_0a_1x1", "trainable": false, "dtype": "float32", "filters": 32, "kernel_size": [1, 1], "strides": [1, 1], "padding": "same", "data_format": "channels_last", "dilation_rate": [1, 1], "activation": "linear", "use_bias": false, "kernel_initializer": {"class_name": "GlorotUniform", "config": {"seed": null}}, "bias_initializer": {"class_name": "Zeros", "config": {}}, "kernel_regularizer": null, "bias_regularizer": null, "activity_regularizer": null, "kernel_constraint": null, "bias_constraint": null}, "name": "Block35_2_Branch_1_Conv2d_0a_1x1", "inbound_nodes": [[["Block35_1_Activation", 0, 0, {}]]]}, {"class_name": "Conv2D", "config": {"name": "Block35_2_Branch_2_Conv2d_0b_3x3", "trainable": false, "dtype": "float32", "filters": 32, "kernel_size": [3, 3], "strides": [1, 1], "padding": "same", "data_format": "channels_last", "dilation_rate": [1, 1], "activation": "linear", "use_bias": false, "kernel_initializer": {"class_name": "GlorotUniform", "config": {"seed": null}}, "bias_initializer": {"class_name": "Zeros", "config": {}}, "kernel_regularizer": null, "bias_regularizer": null, "activity_regularizer": null, "kernel_constraint": null, "bias_constraint": null}, "name": "Block35_2_Branch_2_Conv2d_0b_3x3", "inbound_nodes": [[["Block35_2_Branch_2_Conv2d_0a_1x1_Activation", 0, 0, {}]]]}, {"class_name": "BatchNormalization", "config": {"name": "Block35_2_Branch_1_Conv2d_0a_1x1_BatchNorm", "trainable": false, "dtype": "float32", "axis": [3], "momentum": 0.995, "epsilon": 0.001, "center": true, "scale": false, "beta_initializer": {"class_name": "Zeros", "config": {}}, "gamma_initializer": {"class_name": "Ones", "config": {}}, "moving_mean_initializer": {"class_name": "Zeros", "config": {}}, "moving_variance_initializer": {"class_name": "Ones", "config": {}}, "beta_regularizer": null, "gamma_regularizer": null, "beta_constraint": null, "gamma_constraint": null}, "name": "Block35_2_Branch_1_Conv2d_0a_1x1_BatchNorm", "inbound_nodes": [[["Block35_2_Branch_1_Conv2d_0a_1x1", 0, 0, {}]]]}, {"class_name": "BatchNormalization", "config": {"name": "Block35_2_Branch_2_Conv2d_0b_3x3_BatchNorm", "trainable": false, "dtype": "float32", "axis": [3], "momentum": 0.995, "epsilon": 0.001, "center": true, "scale": false, "beta_initializer": {"class_name": "Zeros", "config": {}}, "gamma_initializer": {"class_name": "Ones", "config": {}}, "moving_mean_initializer": {"class_name": "Zeros", "config": {}}, "moving_variance_initializer": {"class_name": "Ones", "config": {}}, "beta_regularizer": null, "gamma_regularizer": null, "beta_constraint": null, "gamma_constraint": null}, "name": "Block35_2_Branch_2_Conv2d_0b_3x3_BatchNorm", "inbound_nodes": [[["Block35_2_Branch_2_Conv2d_0b_3x3", 0, 0, {}]]]}, {"class_name": "Activation", "config": {"name": "Block35_2_Branch_1_Conv2d_0a_1x1_Activation", "trainable": false, "dtype": "float32", "activation": "relu"}, "name": "Block35_2_Branch_1_Conv2d_0a_1x1_Activation", "inbound_nodes": [[["Block35_2_Branch_1_Conv2d_0a_1x1_BatchNorm", 0, 0, {}]]]}, {"class_name": "Activation", "config": {"name": "Block35_2_Branch_2_Conv2d_0b_3x3_Activation", "trainable": false, "dtype": "float32", "activation": "relu"}, "name": "Block35_2_Branch_2_Conv2d_0b_3x3_Activation", "inbound_nodes": [[["Block35_2_Branch_2_Conv2d_0b_3x3_BatchNorm", 0, 0, {}]]]}, {"class_name": "Conv2D", "config": {"name": "Block35_2_Branch_0_Conv2d_1x1", "trainable": false, "dtype": "float32", "filters": 32, "kernel_size": [1, 1], "strides": [1, 1], "padding": "same", "data_format": "channels_last", "dilation_rate": [1, 1], "activation": "linear", "use_bias": false, "kernel_initializer": {"class_name": "GlorotUniform", "config": {"seed": null}}, "bias_initializer": {"class_name": "Zeros", "config": {}}, "kernel_regularizer": null, "bias_regularizer": null, "activity_regularizer": null, "kernel_constraint": null, "bias_constraint": null}, "name": "Block35_2_Branch_0_Conv2d_1x1", "inbound_nodes": [[["Block35_1_Activation", 0, 0, {}]]]}, {"class_name": "Conv2D", "config": {"name": "Block35_2_Branch_1_Conv2d_0b_3x3", "trainable": false, "dtype": "float32", "filters": 32, "kernel_size": [3, 3], "strides": [1, 1], "padding": "same", "data_format": "channels_last", "dilation_rate": [1, 1], "activation": "linear", "use_bias": false, "kernel_initializer": {"class_name": "GlorotUniform", "config": {"seed": null}}, "bias_initializer": {"class_name": "Zeros", "config": {}}, "kernel_regularizer": null, "bias_regularizer": null, "activity_regularizer": null, "kernel_constraint": null, "bias_constraint": null}, "name": "Block35_2_Branch_1_Conv2d_0b_3x3", "inbound_nodes": [[["Block35_2_Branch_1_Conv2d_0a_1x1_Activation", 0, 0, {}]]]}, {"class_name": "Conv2D", "config": {"name": "Block35_2_Branch_2_Conv2d_0c_3x3", "trainable": false, "dtype": "float32", "filters": 32, "kernel_size": [3, 3], "strides": [1, 1], "padding": "same", "data_format": "channels_last", "dilation_rate": [1, 1], "activation": "linear", "use_bias": false, "kernel_initializer": {"class_name": "GlorotUniform", "config": {"seed": null}}, "bias_initializer": {"class_name": "Zeros", "config": {}}, "kernel_regularizer": null, "bias_regularizer": null, "activity_regularizer": null, "kernel_constraint": null, "bias_constraint": null}, "name": "Block35_2_Branch_2_Conv2d_0c_3x3", "inbound_nodes": [[["Block35_2_Branch_2_Conv2d_0b_3x3_Activation", 0, 0, {}]]]}, {"class_name": "BatchNormalization", "config": {"name": "Block35_2_Branch_0_Conv2d_1x1_BatchNorm", "trainable": false, "dtype": "float32", "axis": [3], "momentum": 0.995, "epsilon": 0.001, "center": true, "scale": false, "beta_initializer": {"class_name": "Zeros", "config": {}}, "gamma_initializer": {"class_name": "Ones", "config": {}}, "moving_mean_initializer": {"class_name": "Zeros", "config": {}}, "moving_variance_initializer": {"class_name": "Ones", "config": {}}, "beta_regularizer": null, "gamma_regularizer": null, "beta_constraint": null, "gamma_constraint": null}, "name": "Block35_2_Branch_0_Conv2d_1x1_BatchNorm", "inbound_nodes": [[["Block35_2_Branch_0_Conv2d_1x1", 0, 0, {}]]]}, {"class_name": "BatchNormalization", "config": {"name": "Block35_2_Branch_1_Conv2d_0b_3x3_BatchNorm", "trainable": false, "dtype": "float32", "axis": [3], "momentum": 0.995, "epsilon": 0.001, "center": true, "scale": false, "beta_initializer": {"class_name": "Zeros", "config": {}}, "gamma_initializer": {"class_name": "Ones", "config": {}}, "moving_mean_initializer": {"class_name": "Zeros", "config": {}}, "moving_variance_initializer": {"class_name": "Ones", "config": {}}, "beta_regularizer": null, "gamma_regularizer": null, "beta_constraint": null, "gamma_constraint": null}, "name": "Block35_2_Branch_1_Conv2d_0b_3x3_BatchNorm", "inbound_nodes": [[["Block35_2_Branch_1_Conv2d_0b_3x3", 0, 0, {}]]]}, {"class_name": "BatchNormalization", "config": {"name": "Block35_2_Branch_2_Conv2d_0c_3x3_BatchNorm", "trainable": false, "dtype": "float32", "axis": [3], "momentum": 0.995, "epsilon": 0.001, "center": true, "scale": false, "beta_initializer": {"class_name": "Zeros", "config": {}}, "gamma_initializer": {"class_name": "Ones", "config": {}}, "moving_mean_initializer": {"class_name": "Zeros", "config": {}}, "moving_variance_initializer": {"class_name": "Ones", "config": {}}, "beta_regularizer": null, "gamma_regularizer": null, "beta_constraint": null, "gamma_constraint": null}, "name": "Block35_2_Branch_2_Conv2d_0c_3x3_BatchNorm", "inbound_nodes": [[["Block35_2_Branch_2_Conv2d_0c_3x3", 0, 0, {}]]]}, {"class_name": "Activation", "config": {"name": "Block35_2_Branch_0_Conv2d_1x1_Activation", "trainable": false, "dtype": "float32", "activation": "relu"}, "name": "Block35_2_Branch_0_Conv2d_1x1_Activation", "inbound_nodes": [[["Block35_2_Branch_0_Conv2d_1x1_BatchNorm", 0, 0, {}]]]}, {"class_name": "Activation", "config": {"name": "Block35_2_Branch_1_Conv2d_0b_3x3_Activation", "trainable": false, "dtype": "float32", "activation": "relu"}, "name": "Block35_2_Branch_1_Conv2d_0b_3x3_Activation", "inbound_nodes": [[["Block35_2_Branch_1_Conv2d_0b_3x3_BatchNorm", 0, 0, {}]]]}, {"class_name": "Activation", "config": {"name": "Block35_2_Branch_2_Conv2d_0c_3x3_Activation", "trainable": false, "dtype": "float32", "activation": "relu"}, "name": "Block35_2_Branch_2_Conv2d_0c_3x3_Activation", "inbound_nodes": [[["Block35_2_Branch_2_Conv2d_0c_3x3_BatchNorm", 0, 0, {}]]]}, {"class_name": "Concatenate", "config": {"name": "Block35_2_Concatenate", "trainable": false, "dtype": "float32", "axis": 3}, "name": "Block35_2_Concatenate", "inbound_nodes": [[["Block35_2_Branch_0_Conv2d_1x1_Activation", 0, 0, {}], ["Block35_2_Branch_1_Conv2d_0b_3x3_Activation", 0, 0, {}], ["Block35_2_Branch_2_Conv2d_0c_3x3_Activation", 0, 0, {}]]]}, {"class_name": "Conv2D", "config": {"name": "Block35_2_Conv2d_1x1", "trainable": false, "dtype": "float32", "filters": 256, "kernel_size": [1, 1], "strides": [1, 1], "padding": "same", "data_format": "channels_last", "dilation_rate": [1, 1], "activation": "linear", "use_bias": true, "kernel_initializer": {"class_name": "GlorotUniform", "config": {"seed": null}}, "bias_initializer": {"class_name": "Zeros", "config": {}}, "kernel_regularizer": null, "bias_regularizer": null, "activity_regularizer": null, "kernel_constraint": null, "bias_constraint": null}, "name": "Block35_2_Conv2d_1x1", "inbound_nodes": [[["Block35_2_Concatenate", 0, 0, {}]]]}, {"class_name": "Lambda", "config": {"name": "lambda_22", "trainable": false, "dtype": "float32", "function": ["4wIAAAAAAAAAAAAAAAIAAAACAAAAQwAAAHMIAAAAfAB8ARQAUwApAU6pACkC2gF42gVzY2FsZXIB\nAAAAcgEAAAD6DnNyYy9mYWNlbmV0LnB52gdzY2FsaW5nEAAAAHMCAAAAAAE=\n", null, null], "function_type": "lambda", "module": "__main__", "output_shape": [17, 17, 256], "output_shape_type": "raw", "output_shape_module": null, "arguments": {"scale": 0.17}}, "name": "lambda_22", "inbound_nodes": [[["Block35_2_Conv2d_1x1", 0, 0, {}]]]}, {"class_name": "Add", "config": {"name": "add_22", "trainable": false, "dtype": "float32"}, "name": "add_22", "inbound_nodes": [[["Block35_1_Activation", 0, 0, {}], ["lambda_22", 0, 0, {}]]]}, {"class_name": "Activation", "config": {"name": "Block35_2_Activation", "trainable": false, "dtype": "float32", "activation": "relu"}, "name": "Block35_2_Activation", "inbound_nodes": [[["add_22", 0, 0, {}]]]}, {"class_name": "Conv2D", "config": {"name": "Block35_3_Branch_2_Conv2d_0a_1x1", "trainable": false, "dtype": "float32", "filters": 32, "kernel_size": [1, 1], "strides": [1, 1], "padding": "same", "data_format": "channels_last", "dilation_rate": [1, 1], "activation": "linear", "use_bias": false, "kernel_initializer": {"class_name": "GlorotUniform", "config": {"seed": null}}, "bias_initializer": {"class_name": "Zeros", "config": {}}, "kernel_regularizer": null, "bias_regularizer": null, "activity_regularizer": null, "kernel_constraint": null, "bias_constraint": null}, "name": "Block35_3_Branch_2_Conv2d_0a_1x1", "inbound_nodes": [[["Block35_2_Activation", 0, 0, {}]]]}, {"class_name": "BatchNormalization", "config": {"name": "Block35_3_Branch_2_Conv2d_0a_1x1_BatchNorm", "trainable": false, "dtype": "float32", "axis": [3], "momentum": 0.995, "epsilon": 0.001, "center": true, "scale": false, "beta_initializer": {"class_name": "Zeros", "config": {}}, "gamma_initializer": {"class_name": "Ones", "config": {}}, "moving_mean_initializer": {"class_name": "Zeros", "config": {}}, "moving_variance_initializer": {"class_name": "Ones", "config": {}}, "beta_regularizer": null, "gamma_regularizer": null, "beta_constraint": null, "gamma_constraint": null}, "name": "Block35_3_Branch_2_Conv2d_0a_1x1_BatchNorm", "inbound_nodes": [[["Block35_3_Branch_2_Conv2d_0a_1x1", 0, 0, {}]]]}, {"class_name": "Activation", "config": {"name": "Block35_3_Branch_2_Conv2d_0a_1x1_Activation", "trainable": false, "dtype": "float32", "activation": "relu"}, "name": "Block35_3_Branch_2_Conv2d_0a_1x1_Activation", "inbound_nodes": [[["Block35_3_Branch_2_Conv2d_0a_1x1_BatchNorm", 0, 0, {}]]]}, {"class_name": "Conv2D", "config": {"name": "Block35_3_Branch_1_Conv2d_0a_1x1", "trainable": false, "dtype": "float32", "filters": 32, "kernel_size": [1, 1], "strides": [1, 1], "padding": "same", "data_format": "channels_last", "dilation_rate": [1, 1], "activation": "linear", "use_bias": false, "kernel_initializer": {"class_name": "GlorotUniform", "config": {"seed": null}}, "bias_initializer": {"class_name": "Zeros", "config": {}}, "kernel_regularizer": null, "bias_regularizer": null, "activity_regularizer": null, "kernel_constraint": null, "bias_constraint": null}, "name": "Block35_3_Branch_1_Conv2d_0a_1x1", "inbound_nodes": [[["Block35_2_Activation", 0, 0, {}]]]}, {"class_name": "Conv2D", "config": {"name": "Block35_3_Branch_2_Conv2d_0b_3x3", "trainable": false, "dtype": "float32", "filters": 32, "kernel_size": [3, 3], "strides": [1, 1], "padding": "same", "data_format": "channels_last", "dilation_rate": [1, 1], "activation": "linear", "use_bias": false, "kernel_initializer": {"class_name": "GlorotUniform", "config": {"seed": null}}, "bias_initializer": {"class_name": "Zeros", "config": {}}, "kernel_regularizer": null, "bias_regularizer": null, "activity_regularizer": null, "kernel_constraint": null, "bias_constraint": null}, "name": "Block35_3_Branch_2_Conv2d_0b_3x3", "inbound_nodes": [[["Block35_3_Branch_2_Conv2d_0a_1x1_Activation", 0, 0, {}]]]}, {"class_name": "BatchNormalization", "config": {"name": "Block35_3_Branch_1_Conv2d_0a_1x1_BatchNorm", "trainable": false, "dtype": "float32", "axis": [3], "momentum": 0.995, "epsilon": 0.001, "center": true, "scale": false, "beta_initializer": {"class_name": "Zeros", "config": {}}, "gamma_initializer": {"class_name": "Ones", "config": {}}, "moving_mean_initializer": {"class_name": "Zeros", "config": {}}, "moving_variance_initializer": {"class_name": "Ones", "config": {}}, "beta_regularizer": null, "gamma_regularizer": null, "beta_constraint": null, "gamma_constraint": null}, "name": "Block35_3_Branch_1_Conv2d_0a_1x1_BatchNorm", "inbound_nodes": [[["Block35_3_Branch_1_Conv2d_0a_1x1", 0, 0, {}]]]}, {"class_name": "BatchNormalization", "config": {"name": "Block35_3_Branch_2_Conv2d_0b_3x3_BatchNorm", "trainable": false, "dtype": "float32", "axis": [3], "momentum": 0.995, "epsilon": 0.001, "center": true, "scale": false, "beta_initializer": {"class_name": "Zeros", "config": {}}, "gamma_initializer": {"class_name": "Ones", "config": {}}, "moving_mean_initializer": {"class_name": "Zeros", "config": {}}, "moving_variance_initializer": {"class_name": "Ones", "config": {}}, "beta_regularizer": null, "gamma_regularizer": null, "beta_constraint": null, "gamma_constraint": null}, "name": "Block35_3_Branch_2_Conv2d_0b_3x3_BatchNorm", "inbound_nodes": [[["Block35_3_Branch_2_Conv2d_0b_3x3", 0, 0, {}]]]}, {"class_name": "Activation", "config": {"name": "Block35_3_Branch_1_Conv2d_0a_1x1_Activation", "trainable": false, "dtype": "float32", "activation": "relu"}, "name": "Block35_3_Branch_1_Conv2d_0a_1x1_Activation", "inbound_nodes": [[["Block35_3_Branch_1_Conv2d_0a_1x1_BatchNorm", 0, 0, {}]]]}, {"class_name": "Activation", "config": {"name": "Block35_3_Branch_2_Conv2d_0b_3x3_Activation", "trainable": false, "dtype": "float32", "activation": "relu"}, "name": "Block35_3_Branch_2_Conv2d_0b_3x3_Activation", "inbound_nodes": [[["Block35_3_Branch_2_Conv2d_0b_3x3_BatchNorm", 0, 0, {}]]]}, {"class_name": "Conv2D", "config": {"name": "Block35_3_Branch_0_Conv2d_1x1", "trainable": false, "dtype": "float32", "filters": 32, "kernel_size": [1, 1], "strides": [1, 1], "padding": "same", "data_format": "channels_last", "dilation_rate": [1, 1], "activation": "linear", "use_bias": false, "kernel_initializer": {"class_name": "GlorotUniform", "config": {"seed": null}}, "bias_initializer": {"class_name": "Zeros", "config": {}}, "kernel_regularizer": null, "bias_regularizer": null, "activity_regularizer": null, "kernel_constraint": null, "bias_constraint": null}, "name": "Block35_3_Branch_0_Conv2d_1x1", "inbound_nodes": [[["Block35_2_Activation", 0, 0, {}]]]}, {"class_name": "Conv2D", "config": {"name": "Block35_3_Branch_1_Conv2d_0b_3x3", "trainable": false, "dtype": "float32", "filters": 32, "kernel_size": [3, 3], "strides": [1, 1], "padding": "same", "data_format": "channels_last", "dilation_rate": [1, 1], "activation": "linear", "use_bias": false, "kernel_initializer": {"class_name": "GlorotUniform", "config": {"seed": null}}, "bias_initializer": {"class_name": "Zeros", "config": {}}, "kernel_regularizer": null, "bias_regularizer": null, "activity_regularizer": null, "kernel_constraint": null, "bias_constraint": null}, "name": "Block35_3_Branch_1_Conv2d_0b_3x3", "inbound_nodes": [[["Block35_3_Branch_1_Conv2d_0a_1x1_Activation", 0, 0, {}]]]}, {"class_name": "Conv2D", "config": {"name": "Block35_3_Branch_2_Conv2d_0c_3x3", "trainable": false, "dtype": "float32", "filters": 32, "kernel_size": [3, 3], "strides": [1, 1], "padding": "same", "data_format": "channels_last", "dilation_rate": [1, 1], "activation": "linear", "use_bias": false, "kernel_initializer": {"class_name": "GlorotUniform", "config": {"seed": null}}, "bias_initializer": {"class_name": "Zeros", "config": {}}, "kernel_regularizer": null, "bias_regularizer": null, "activity_regularizer": null, "kernel_constraint": null, "bias_constraint": null}, "name": "Block35_3_Branch_2_Conv2d_0c_3x3", "inbound_nodes": [[["Block35_3_Branch_2_Conv2d_0b_3x3_Activation", 0, 0, {}]]]}, {"class_name": "BatchNormalization", "config": {"name": "Block35_3_Branch_0_Conv2d_1x1_BatchNorm", "trainable": false, "dtype": "float32", "axis": [3], "momentum": 0.995, "epsilon": 0.001, "center": true, "scale": false, "beta_initializer": {"class_name": "Zeros", "config": {}}, "gamma_initializer": {"class_name": "Ones", "config": {}}, "moving_mean_initializer": {"class_name": "Zeros", "config": {}}, "moving_variance_initializer": {"class_name": "Ones", "config": {}}, "beta_regularizer": null, "gamma_regularizer": null, "beta_constraint": null, "gamma_constraint": null}, "name": "Block35_3_Branch_0_Conv2d_1x1_BatchNorm", "inbound_nodes": [[["Block35_3_Branch_0_Conv2d_1x1", 0, 0, {}]]]}, {"class_name": "BatchNormalization", "config": {"name": "Block35_3_Branch_1_Conv2d_0b_3x3_BatchNorm", "trainable": false, "dtype": "float32", "axis": [3], "momentum": 0.995, "epsilon": 0.001, "center": true, "scale": false, "beta_initializer": {"class_name": "Zeros", "config": {}}, "gamma_initializer": {"class_name": "Ones", "config": {}}, "moving_mean_initializer": {"class_name": "Zeros", "config": {}}, "moving_variance_initializer": {"class_name": "Ones", "config": {}}, "beta_regularizer": null, "gamma_regularizer": null, "beta_constraint": null, "gamma_constraint": null}, "name": "Block35_3_Branch_1_Conv2d_0b_3x3_BatchNorm", "inbound_nodes": [[["Block35_3_Branch_1_Conv2d_0b_3x3", 0, 0, {}]]]}, {"class_name": "BatchNormalization", "config": {"name": "Block35_3_Branch_2_Conv2d_0c_3x3_BatchNorm", "trainable": false, "dtype": "float32", "axis": [3], "momentum": 0.995, "epsilon": 0.001, "center": true, "scale": false, "beta_initializer": {"class_name": "Zeros", "config": {}}, "gamma_initializer": {"class_name": "Ones", "config": {}}, "moving_mean_initializer": {"class_name": "Zeros", "config": {}}, "moving_variance_initializer": {"class_name": "Ones", "config": {}}, "beta_regularizer": null, "gamma_regularizer": null, "beta_constraint": null, "gamma_constraint": null}, "name": "Block35_3_Branch_2_Conv2d_0c_3x3_BatchNorm", "inbound_nodes": [[["Block35_3_Branch_2_Conv2d_0c_3x3", 0, 0, {}]]]}, {"class_name": "Activation", "config": {"name": "Block35_3_Branch_0_Conv2d_1x1_Activation", "trainable": false, "dtype": "float32", "activation": "relu"}, "name": "Block35_3_Branch_0_Conv2d_1x1_Activation", "inbound_nodes": [[["Block35_3_Branch_0_Conv2d_1x1_BatchNorm", 0, 0, {}]]]}, {"class_name": "Activation", "config": {"name": "Block35_3_Branch_1_Conv2d_0b_3x3_Activation", "trainable": false, "dtype": "float32", "activation": "relu"}, "name": "Block35_3_Branch_1_Conv2d_0b_3x3_Activation", "inbound_nodes": [[["Block35_3_Branch_1_Conv2d_0b_3x3_BatchNorm", 0, 0, {}]]]}, {"class_name": "Activation", "config": {"name": "Block35_3_Branch_2_Conv2d_0c_3x3_Activation", "trainable": false, "dtype": "float32", "activation": "relu"}, "name": "Block35_3_Branch_2_Conv2d_0c_3x3_Activation", "inbound_nodes": [[["Block35_3_Branch_2_Conv2d_0c_3x3_BatchNorm", 0, 0, {}]]]}, {"class_name": "Concatenate", "config": {"name": "Block35_3_Concatenate", "trainable": false, "dtype": "float32", "axis": 3}, "name": "Block35_3_Concatenate", "inbound_nodes": [[["Block35_3_Branch_0_Conv2d_1x1_Activation", 0, 0, {}], ["Block35_3_Branch_1_Conv2d_0b_3x3_Activation", 0, 0, {}], ["Block35_3_Branch_2_Conv2d_0c_3x3_Activation", 0, 0, {}]]]}, {"class_name": "Conv2D", "config": {"name": "Block35_3_Conv2d_1x1", "trainable": false, "dtype": "float32", "filters": 256, "kernel_size": [1, 1], "strides": [1, 1], "padding": "same", "data_format": "channels_last", "dilation_rate": [1, 1], "activation": "linear", "use_bias": true, "kernel_initializer": {"class_name": "GlorotUniform", "config": {"seed": null}}, "bias_initializer": {"class_name": "Zeros", "config": {}}, "kernel_regularizer": null, "bias_regularizer": null, "activity_regularizer": null, "kernel_constraint": null, "bias_constraint": null}, "name": "Block35_3_Conv2d_1x1", "inbound_nodes": [[["Block35_3_Concatenate", 0, 0, {}]]]}, {"class_name": "Lambda", "config": {"name": "lambda_23", "trainable": false, "dtype": "float32", "function": ["4wIAAAAAAAAAAAAAAAIAAAACAAAAQwAAAHMIAAAAfAB8ARQAUwApAU6pACkC2gF42gVzY2FsZXIB\nAAAAcgEAAAD6DnNyYy9mYWNlbmV0LnB52gdzY2FsaW5nEAAAAHMCAAAAAAE=\n", null, null], "function_type": "lambda", "module": "__main__", "output_shape": [17, 17, 256], "output_shape_type": "raw", "output_shape_module": null, "arguments": {"scale": 0.17}}, "name": "lambda_23", "inbound_nodes": [[["Block35_3_Conv2d_1x1", 0, 0, {}]]]}, {"class_name": "Add", "config": {"name": "add_23", "trainable": false, "dtype": "float32"}, "name": "add_23", "inbound_nodes": [[["Block35_2_Activation", 0, 0, {}], ["lambda_23", 0, 0, {}]]]}, {"class_name": "Activation", "config": {"name": "Block35_3_Activation", "trainable": false, "dtype": "float32", "activation": "relu"}, "name": "Block35_3_Activation", "inbound_nodes": [[["add_23", 0, 0, {}]]]}, {"class_name": "Conv2D", "config": {"name": "Block35_4_Branch_2_Conv2d_0a_1x1", "trainable": false, "dtype": "float32", "filters": 32, "kernel_size": [1, 1], "strides": [1, 1], "padding": "same", "data_format": "channels_last", "dilation_rate": [1, 1], "activation": "linear", "use_bias": false, "kernel_initializer": {"class_name": "GlorotUniform", "config": {"seed": null}}, "bias_initializer": {"class_name": "Zeros", "config": {}}, "kernel_regularizer": null, "bias_regularizer": null, "activity_regularizer": null, "kernel_constraint": null, "bias_constraint": null}, "name": "Block35_4_Branch_2_Conv2d_0a_1x1", "inbound_nodes": [[["Block35_3_Activation", 0, 0, {}]]]}, {"class_name": "BatchNormalization", "config": {"name": "Block35_4_Branch_2_Conv2d_0a_1x1_BatchNorm", "trainable": false, "dtype": "float32", "axis": [3], "momentum": 0.995, "epsilon": 0.001, "center": true, "scale": false, "beta_initializer": {"class_name": "Zeros", "config": {}}, "gamma_initializer": {"class_name": "Ones", "config": {}}, "moving_mean_initializer": {"class_name": "Zeros", "config": {}}, "moving_variance_initializer": {"class_name": "Ones", "config": {}}, "beta_regularizer": null, "gamma_regularizer": null, "beta_constraint": null, "gamma_constraint": null}, "name": "Block35_4_Branch_2_Conv2d_0a_1x1_BatchNorm", "inbound_nodes": [[["Block35_4_Branch_2_Conv2d_0a_1x1", 0, 0, {}]]]}, {"class_name": "Activation", "config": {"name": "Block35_4_Branch_2_Conv2d_0a_1x1_Activation", "trainable": false, "dtype": "float32", "activation": "relu"}, "name": "Block35_4_Branch_2_Conv2d_0a_1x1_Activation", "inbound_nodes": [[["Block35_4_Branch_2_Conv2d_0a_1x1_BatchNorm", 0, 0, {}]]]}, {"class_name": "Conv2D", "config": {"name": "Block35_4_Branch_1_Conv2d_0a_1x1", "trainable": false, "dtype": "float32", "filters": 32, "kernel_size": [1, 1], "strides": [1, 1], "padding": "same", "data_format": "channels_last", "dilation_rate": [1, 1], "activation": "linear", "use_bias": false, "kernel_initializer": {"class_name": "GlorotUniform", "config": {"seed": null}}, "bias_initializer": {"class_name": "Zeros", "config": {}}, "kernel_regularizer": null, "bias_regularizer": null, "activity_regularizer": null, "kernel_constraint": null, "bias_constraint": null}, "name": "Block35_4_Branch_1_Conv2d_0a_1x1", "inbound_nodes": [[["Block35_3_Activation", 0, 0, {}]]]}, {"class_name": "Conv2D", "config": {"name": "Block35_4_Branch_2_Conv2d_0b_3x3", "trainable": false, "dtype": "float32", "filters": 32, "kernel_size": [3, 3], "strides": [1, 1], "padding": "same", "data_format": "channels_last", "dilation_rate": [1, 1], "activation": "linear", "use_bias": false, "kernel_initializer": {"class_name": "GlorotUniform", "config": {"seed": null}}, "bias_initializer": {"class_name": "Zeros", "config": {}}, "kernel_regularizer": null, "bias_regularizer": null, "activity_regularizer": null, "kernel_constraint": null, "bias_constraint": null}, "name": "Block35_4_Branch_2_Conv2d_0b_3x3", "inbound_nodes": [[["Block35_4_Branch_2_Conv2d_0a_1x1_Activation", 0, 0, {}]]]}, {"class_name": "BatchNormalization", "config": {"name": "Block35_4_Branch_1_Conv2d_0a_1x1_BatchNorm", "trainable": false, "dtype": "float32", "axis": [3], "momentum": 0.995, "epsilon": 0.001, "center": true, "scale": false, "beta_initializer": {"class_name": "Zeros", "config": {}}, "gamma_initializer": {"class_name": "Ones", "config": {}}, "moving_mean_initializer": {"class_name": "Zeros", "config": {}}, "moving_variance_initializer": {"class_name": "Ones", "config": {}}, "beta_regularizer": null, "gamma_regularizer": null, "beta_constraint": null, "gamma_constraint": null}, "name": "Block35_4_Branch_1_Conv2d_0a_1x1_BatchNorm", "inbound_nodes": [[["Block35_4_Branch_1_Conv2d_0a_1x1", 0, 0, {}]]]}, {"class_name": "BatchNormalization", "config": {"name": "Block35_4_Branch_2_Conv2d_0b_3x3_BatchNorm", "trainable": false, "dtype": "float32", "axis": [3], "momentum": 0.995, "epsilon": 0.001, "center": true, "scale": false, "beta_initializer": {"class_name": "Zeros", "config": {}}, "gamma_initializer": {"class_name": "Ones", "config": {}}, "moving_mean_initializer": {"class_name": "Zeros", "config": {}}, "moving_variance_initializer": {"class_name": "Ones", "config": {}}, "beta_regularizer": null, "gamma_regularizer": null, "beta_constraint": null, "gamma_constraint": null}, "name": "Block35_4_Branch_2_Conv2d_0b_3x3_BatchNorm", "inbound_nodes": [[["Block35_4_Branch_2_Conv2d_0b_3x3", 0, 0, {}]]]}, {"class_name": "Activation", "config": {"name": "Block35_4_Branch_1_Conv2d_0a_1x1_Activation", "trainable": false, "dtype": "float32", "activation": "relu"}, "name": "Block35_4_Branch_1_Conv2d_0a_1x1_Activation", "inbound_nodes": [[["Block35_4_Branch_1_Conv2d_0a_1x1_BatchNorm", 0, 0, {}]]]}, {"class_name": "Activation", "config": {"name": "Block35_4_Branch_2_Conv2d_0b_3x3_Activation", "trainable": false, "dtype": "float32", "activation": "relu"}, "name": "Block35_4_Branch_2_Conv2d_0b_3x3_Activation", "inbound_nodes": [[["Block35_4_Branch_2_Conv2d_0b_3x3_BatchNorm", 0, 0, {}]]]}, {"class_name": "Conv2D", "config": {"name": "Block35_4_Branch_0_Conv2d_1x1", "trainable": false, "dtype": "float32", "filters": 32, "kernel_size": [1, 1], "strides": [1, 1], "padding": "same", "data_format": "channels_last", "dilation_rate": [1, 1], "activation": "linear", "use_bias": false, "kernel_initializer": {"class_name": "GlorotUniform", "config": {"seed": null}}, "bias_initializer": {"class_name": "Zeros", "config": {}}, "kernel_regularizer": null, "bias_regularizer": null, "activity_regularizer": null, "kernel_constraint": null, "bias_constraint": null}, "name": "Block35_4_Branch_0_Conv2d_1x1", "inbound_nodes": [[["Block35_3_Activation", 0, 0, {}]]]}, {"class_name": "Conv2D", "config": {"name": "Block35_4_Branch_1_Conv2d_0b_3x3", "trainable": false, "dtype": "float32", "filters": 32, "kernel_size": [3, 3], "strides": [1, 1], "padding": "same", "data_format": "channels_last", "dilation_rate": [1, 1], "activation": "linear", "use_bias": false, "kernel_initializer": {"class_name": "GlorotUniform", "config": {"seed": null}}, "bias_initializer": {"class_name": "Zeros", "config": {}}, "kernel_regularizer": null, "bias_regularizer": null, "activity_regularizer": null, "kernel_constraint": null, "bias_constraint": null}, "name": "Block35_4_Branch_1_Conv2d_0b_3x3", "inbound_nodes": [[["Block35_4_Branch_1_Conv2d_0a_1x1_Activation", 0, 0, {}]]]}, {"class_name": "Conv2D", "config": {"name": "Block35_4_Branch_2_Conv2d_0c_3x3", "trainable": false, "dtype": "float32", "filters": 32, "kernel_size": [3, 3], "strides": [1, 1], "padding": "same", "data_format": "channels_last", "dilation_rate": [1, 1], "activation": "linear", "use_bias": false, "kernel_initializer": {"class_name": "GlorotUniform", "config": {"seed": null}}, "bias_initializer": {"class_name": "Zeros", "config": {}}, "kernel_regularizer": null, "bias_regularizer": null, "activity_regularizer": null, "kernel_constraint": null, "bias_constraint": null}, "name": "Block35_4_Branch_2_Conv2d_0c_3x3", "inbound_nodes": [[["Block35_4_Branch_2_Conv2d_0b_3x3_Activation", 0, 0, {}]]]}, {"class_name": "BatchNormalization", "config": {"name": "Block35_4_Branch_0_Conv2d_1x1_BatchNorm", "trainable": false, "dtype": "float32", "axis": [3], "momentum": 0.995, "epsilon": 0.001, "center": true, "scale": false, "beta_initializer": {"class_name": "Zeros", "config": {}}, "gamma_initializer": {"class_name": "Ones", "config": {}}, "moving_mean_initializer": {"class_name": "Zeros", "config": {}}, "moving_variance_initializer": {"class_name": "Ones", "config": {}}, "beta_regularizer": null, "gamma_regularizer": null, "beta_constraint": null, "gamma_constraint": null}, "name": "Block35_4_Branch_0_Conv2d_1x1_BatchNorm", "inbound_nodes": [[["Block35_4_Branch_0_Conv2d_1x1", 0, 0, {}]]]}, {"class_name": "BatchNormalization", "config": {"name": "Block35_4_Branch_1_Conv2d_0b_3x3_BatchNorm", "trainable": false, "dtype": "float32", "axis": [3], "momentum": 0.995, "epsilon": 0.001, "center": true, "scale": false, "beta_initializer": {"class_name": "Zeros", "config": {}}, "gamma_initializer": {"class_name": "Ones", "config": {}}, "moving_mean_initializer": {"class_name": "Zeros", "config": {}}, "moving_variance_initializer": {"class_name": "Ones", "config": {}}, "beta_regularizer": null, "gamma_regularizer": null, "beta_constraint": null, "gamma_constraint": null}, "name": "Block35_4_Branch_1_Conv2d_0b_3x3_BatchNorm", "inbound_nodes": [[["Block35_4_Branch_1_Conv2d_0b_3x3", 0, 0, {}]]]}, {"class_name": "BatchNormalization", "config": {"name": "Block35_4_Branch_2_Conv2d_0c_3x3_BatchNorm", "trainable": false, "dtype": "float32", "axis": [3], "momentum": 0.995, "epsilon": 0.001, "center": true, "scale": false, "beta_initializer": {"class_name": "Zeros", "config": {}}, "gamma_initializer": {"class_name": "Ones", "config": {}}, "moving_mean_initializer": {"class_name": "Zeros", "config": {}}, "moving_variance_initializer": {"class_name": "Ones", "config": {}}, "beta_regularizer": null, "gamma_regularizer": null, "beta_constraint": null, "gamma_constraint": null}, "name": "Block35_4_Branch_2_Conv2d_0c_3x3_BatchNorm", "inbound_nodes": [[["Block35_4_Branch_2_Conv2d_0c_3x3", 0, 0, {}]]]}, {"class_name": "Activation", "config": {"name": "Block35_4_Branch_0_Conv2d_1x1_Activation", "trainable": false, "dtype": "float32", "activation": "relu"}, "name": "Block35_4_Branch_0_Conv2d_1x1_Activation", "inbound_nodes": [[["Block35_4_Branch_0_Conv2d_1x1_BatchNorm", 0, 0, {}]]]}, {"class_name": "Activation", "config": {"name": "Block35_4_Branch_1_Conv2d_0b_3x3_Activation", "trainable": false, "dtype": "float32", "activation": "relu"}, "name": "Block35_4_Branch_1_Conv2d_0b_3x3_Activation", "inbound_nodes": [[["Block35_4_Branch_1_Conv2d_0b_3x3_BatchNorm", 0, 0, {}]]]}, {"class_name": "Activation", "config": {"name": "Block35_4_Branch_2_Conv2d_0c_3x3_Activation", "trainable": false, "dtype": "float32", "activation": "relu"}, "name": "Block35_4_Branch_2_Conv2d_0c_3x3_Activation", "inbound_nodes": [[["Block35_4_Branch_2_Conv2d_0c_3x3_BatchNorm", 0, 0, {}]]]}, {"class_name": "Concatenate", "config": {"name": "Block35_4_Concatenate", "trainable": false, "dtype": "float32", "axis": 3}, "name": "Block35_4_Concatenate", "inbound_nodes": [[["Block35_4_Branch_0_Conv2d_1x1_Activation", 0, 0, {}], ["Block35_4_Branch_1_Conv2d_0b_3x3_Activation", 0, 0, {}], ["Block35_4_Branch_2_Conv2d_0c_3x3_Activation", 0, 0, {}]]]}, {"class_name": "Conv2D", "config": {"name": "Block35_4_Conv2d_1x1", "trainable": false, "dtype": "float32", "filters": 256, "kernel_size": [1, 1], "strides": [1, 1], "padding": "same", "data_format": "channels_last", "dilation_rate": [1, 1], "activation": "linear", "use_bias": true, "kernel_initializer": {"class_name": "GlorotUniform", "config": {"seed": null}}, "bias_initializer": {"class_name": "Zeros", "config": {}}, "kernel_regularizer": null, "bias_regularizer": null, "activity_regularizer": null, "kernel_constraint": null, "bias_constraint": null}, "name": "Block35_4_Conv2d_1x1", "inbound_nodes": [[["Block35_4_Concatenate", 0, 0, {}]]]}, {"class_name": "Lambda", "config": {"name": "lambda_24", "trainable": false, "dtype": "float32", "function": ["4wIAAAAAAAAAAAAAAAIAAAACAAAAQwAAAHMIAAAAfAB8ARQAUwApAU6pACkC2gF42gVzY2FsZXIB\nAAAAcgEAAAD6DnNyYy9mYWNlbmV0LnB52gdzY2FsaW5nEAAAAHMCAAAAAAE=\n", null, null], "function_type": "lambda", "module": "__main__", "output_shape": [17, 17, 256], "output_shape_type": "raw", "output_shape_module": null, "arguments": {"scale": 0.17}}, "name": "lambda_24", "inbound_nodes": [[["Block35_4_Conv2d_1x1", 0, 0, {}]]]}, {"class_name": "Add", "config": {"name": "add_24", "trainable": false, "dtype": "float32"}, "name": "add_24", "inbound_nodes": [[["Block35_3_Activation", 0, 0, {}], ["lambda_24", 0, 0, {}]]]}, {"class_name": "Activation", "config": {"name": "Block35_4_Activation", "trainable": false, "dtype": "float32", "activation": "relu"}, "name": "Block35_4_Activation", "inbound_nodes": [[["add_24", 0, 0, {}]]]}, {"class_name": "Conv2D", "config": {"name": "Block35_5_Branch_2_Conv2d_0a_1x1", "trainable": false, "dtype": "float32", "filters": 32, "kernel_size": [1, 1], "strides": [1, 1], "padding": "same", "data_format": "channels_last", "dilation_rate": [1, 1], "activation": "linear", "use_bias": false, "kernel_initializer": {"class_name": "GlorotUniform", "config": {"seed": null}}, "bias_initializer": {"class_name": "Zeros", "config": {}}, "kernel_regularizer": null, "bias_regularizer": null, "activity_regularizer": null, "kernel_constraint": null, "bias_constraint": null}, "name": "Block35_5_Branch_2_Conv2d_0a_1x1", "inbound_nodes": [[["Block35_4_Activation", 0, 0, {}]]]}, {"class_name": "BatchNormalization", "config": {"name": "Block35_5_Branch_2_Conv2d_0a_1x1_BatchNorm", "trainable": false, "dtype": "float32", "axis": [3], "momentum": 0.995, "epsilon": 0.001, "center": true, "scale": false, "beta_initializer": {"class_name": "Zeros", "config": {}}, "gamma_initializer": {"class_name": "Ones", "config": {}}, "moving_mean_initializer": {"class_name": "Zeros", "config": {}}, "moving_variance_initializer": {"class_name": "Ones", "config": {}}, "beta_regularizer": null, "gamma_regularizer": null, "beta_constraint": null, "gamma_constraint": null}, "name": "Block35_5_Branch_2_Conv2d_0a_1x1_BatchNorm", "inbound_nodes": [[["Block35_5_Branch_2_Conv2d_0a_1x1", 0, 0, {}]]]}, {"class_name": "Activation", "config": {"name": "Block35_5_Branch_2_Conv2d_0a_1x1_Activation", "trainable": false, "dtype": "float32", "activation": "relu"}, "name": "Block35_5_Branch_2_Conv2d_0a_1x1_Activation", "inbound_nodes": [[["Block35_5_Branch_2_Conv2d_0a_1x1_BatchNorm", 0, 0, {}]]]}, {"class_name": "Conv2D", "config": {"name": "Block35_5_Branch_1_Conv2d_0a_1x1", "trainable": false, "dtype": "float32", "filters": 32, "kernel_size": [1, 1], "strides": [1, 1], "padding": "same", "data_format": "channels_last", "dilation_rate": [1, 1], "activation": "linear", "use_bias": false, "kernel_initializer": {"class_name": "GlorotUniform", "config": {"seed": null}}, "bias_initializer": {"class_name": "Zeros", "config": {}}, "kernel_regularizer": null, "bias_regularizer": null, "activity_regularizer": null, "kernel_constraint": null, "bias_constraint": null}, "name": "Block35_5_Branch_1_Conv2d_0a_1x1", "inbound_nodes": [[["Block35_4_Activation", 0, 0, {}]]]}, {"class_name": "Conv2D", "config": {"name": "Block35_5_Branch_2_Conv2d_0b_3x3", "trainable": false, "dtype": "float32", "filters": 32, "kernel_size": [3, 3], "strides": [1, 1], "padding": "same", "data_format": "channels_last", "dilation_rate": [1, 1], "activation": "linear", "use_bias": false, "kernel_initializer": {"class_name": "GlorotUniform", "config": {"seed": null}}, "bias_initializer": {"class_name": "Zeros", "config": {}}, "kernel_regularizer": null, "bias_regularizer": null, "activity_regularizer": null, "kernel_constraint": null, "bias_constraint": null}, "name": "Block35_5_Branch_2_Conv2d_0b_3x3", "inbound_nodes": [[["Block35_5_Branch_2_Conv2d_0a_1x1_Activation", 0, 0, {}]]]}, {"class_name": "BatchNormalization", "config": {"name": "Block35_5_Branch_1_Conv2d_0a_1x1_BatchNorm", "trainable": false, "dtype": "float32", "axis": [3], "momentum": 0.995, "epsilon": 0.001, "center": true, "scale": false, "beta_initializer": {"class_name": "Zeros", "config": {}}, "gamma_initializer": {"class_name": "Ones", "config": {}}, "moving_mean_initializer": {"class_name": "Zeros", "config": {}}, "moving_variance_initializer": {"class_name": "Ones", "config": {}}, "beta_regularizer": null, "gamma_regularizer": null, "beta_constraint": null, "gamma_constraint": null}, "name": "Block35_5_Branch_1_Conv2d_0a_1x1_BatchNorm", "inbound_nodes": [[["Block35_5_Branch_1_Conv2d_0a_1x1", 0, 0, {}]]]}, {"class_name": "BatchNormalization", "config": {"name": "Block35_5_Branch_2_Conv2d_0b_3x3_BatchNorm", "trainable": false, "dtype": "float32", "axis": [3], "momentum": 0.995, "epsilon": 0.001, "center": true, "scale": false, "beta_initializer": {"class_name": "Zeros", "config": {}}, "gamma_initializer": {"class_name": "Ones", "config": {}}, "moving_mean_initializer": {"class_name": "Zeros", "config": {}}, "moving_variance_initializer": {"class_name": "Ones", "config": {}}, "beta_regularizer": null, "gamma_regularizer": null, "beta_constraint": null, "gamma_constraint": null}, "name": "Block35_5_Branch_2_Conv2d_0b_3x3_BatchNorm", "inbound_nodes": [[["Block35_5_Branch_2_Conv2d_0b_3x3", 0, 0, {}]]]}, {"class_name": "Activation", "config": {"name": "Block35_5_Branch_1_Conv2d_0a_1x1_Activation", "trainable": false, "dtype": "float32", "activation": "relu"}, "name": "Block35_5_Branch_1_Conv2d_0a_1x1_Activation", "inbound_nodes": [[["Block35_5_Branch_1_Conv2d_0a_1x1_BatchNorm", 0, 0, {}]]]}, {"class_name": "Activation", "config": {"name": "Block35_5_Branch_2_Conv2d_0b_3x3_Activation", "trainable": false, "dtype": "float32", "activation": "relu"}, "name": "Block35_5_Branch_2_Conv2d_0b_3x3_Activation", "inbound_nodes": [[["Block35_5_Branch_2_Conv2d_0b_3x3_BatchNorm", 0, 0, {}]]]}, {"class_name": "Conv2D", "config": {"name": "Block35_5_Branch_0_Conv2d_1x1", "trainable": false, "dtype": "float32", "filters": 32, "kernel_size": [1, 1], "strides": [1, 1], "padding": "same", "data_format": "channels_last", "dilation_rate": [1, 1], "activation": "linear", "use_bias": false, "kernel_initializer": {"class_name": "GlorotUniform", "config": {"seed": null}}, "bias_initializer": {"class_name": "Zeros", "config": {}}, "kernel_regularizer": null, "bias_regularizer": null, "activity_regularizer": null, "kernel_constraint": null, "bias_constraint": null}, "name": "Block35_5_Branch_0_Conv2d_1x1", "inbound_nodes": [[["Block35_4_Activation", 0, 0, {}]]]}, {"class_name": "Conv2D", "config": {"name": "Block35_5_Branch_1_Conv2d_0b_3x3", "trainable": false, "dtype": "float32", "filters": 32, "kernel_size": [3, 3], "strides": [1, 1], "padding": "same", "data_format": "channels_last", "dilation_rate": [1, 1], "activation": "linear", "use_bias": false, "kernel_initializer": {"class_name": "GlorotUniform", "config": {"seed": null}}, "bias_initializer": {"class_name": "Zeros", "config": {}}, "kernel_regularizer": null, "bias_regularizer": null, "activity_regularizer": null, "kernel_constraint": null, "bias_constraint": null}, "name": "Block35_5_Branch_1_Conv2d_0b_3x3", "inbound_nodes": [[["Block35_5_Branch_1_Conv2d_0a_1x1_Activation", 0, 0, {}]]]}, {"class_name": "Conv2D", "config": {"name": "Block35_5_Branch_2_Conv2d_0c_3x3", "trainable": false, "dtype": "float32", "filters": 32, "kernel_size": [3, 3], "strides": [1, 1], "padding": "same", "data_format": "channels_last", "dilation_rate": [1, 1], "activation": "linear", "use_bias": false, "kernel_initializer": {"class_name": "GlorotUniform", "config": {"seed": null}}, "bias_initializer": {"class_name": "Zeros", "config": {}}, "kernel_regularizer": null, "bias_regularizer": null, "activity_regularizer": null, "kernel_constraint": null, "bias_constraint": null}, "name": "Block35_5_Branch_2_Conv2d_0c_3x3", "inbound_nodes": [[["Block35_5_Branch_2_Conv2d_0b_3x3_Activation", 0, 0, {}]]]}, {"class_name": "BatchNormalization", "config": {"name": "Block35_5_Branch_0_Conv2d_1x1_BatchNorm", "trainable": false, "dtype": "float32", "axis": [3], "momentum": 0.995, "epsilon": 0.001, "center": true, "scale": false, "beta_initializer": {"class_name": "Zeros", "config": {}}, "gamma_initializer": {"class_name": "Ones", "config": {}}, "moving_mean_initializer": {"class_name": "Zeros", "config": {}}, "moving_variance_initializer": {"class_name": "Ones", "config": {}}, "beta_regularizer": null, "gamma_regularizer": null, "beta_constraint": null, "gamma_constraint": null}, "name": "Block35_5_Branch_0_Conv2d_1x1_BatchNorm", "inbound_nodes": [[["Block35_5_Branch_0_Conv2d_1x1", 0, 0, {}]]]}, {"class_name": "BatchNormalization", "config": {"name": "Block35_5_Branch_1_Conv2d_0b_3x3_BatchNorm", "trainable": false, "dtype": "float32", "axis": [3], "momentum": 0.995, "epsilon": 0.001, "center": true, "scale": false, "beta_initializer": {"class_name": "Zeros", "config": {}}, "gamma_initializer": {"class_name": "Ones", "config": {}}, "moving_mean_initializer": {"class_name": "Zeros", "config": {}}, "moving_variance_initializer": {"class_name": "Ones", "config": {}}, "beta_regularizer": null, "gamma_regularizer": null, "beta_constraint": null, "gamma_constraint": null}, "name": "Block35_5_Branch_1_Conv2d_0b_3x3_BatchNorm", "inbound_nodes": [[["Block35_5_Branch_1_Conv2d_0b_3x3", 0, 0, {}]]]}, {"class_name": "BatchNormalization", "config": {"name": "Block35_5_Branch_2_Conv2d_0c_3x3_BatchNorm", "trainable": false, "dtype": "float32", "axis": [3], "momentum": 0.995, "epsilon": 0.001, "center": true, "scale": false, "beta_initializer": {"class_name": "Zeros", "config": {}}, "gamma_initializer": {"class_name": "Ones", "config": {}}, "moving_mean_initializer": {"class_name": "Zeros", "config": {}}, "moving_variance_initializer": {"class_name": "Ones", "config": {}}, "beta_regularizer": null, "gamma_regularizer": null, "beta_constraint": null, "gamma_constraint": null}, "name": "Block35_5_Branch_2_Conv2d_0c_3x3_BatchNorm", "inbound_nodes": [[["Block35_5_Branch_2_Conv2d_0c_3x3", 0, 0, {}]]]}, {"class_name": "Activation", "config": {"name": "Block35_5_Branch_0_Conv2d_1x1_Activation", "trainable": false, "dtype": "float32", "activation": "relu"}, "name": "Block35_5_Branch_0_Conv2d_1x1_Activation", "inbound_nodes": [[["Block35_5_Branch_0_Conv2d_1x1_BatchNorm", 0, 0, {}]]]}, {"class_name": "Activation", "config": {"name": "Block35_5_Branch_1_Conv2d_0b_3x3_Activation", "trainable": false, "dtype": "float32", "activation": "relu"}, "name": "Block35_5_Branch_1_Conv2d_0b_3x3_Activation", "inbound_nodes": [[["Block35_5_Branch_1_Conv2d_0b_3x3_BatchNorm", 0, 0, {}]]]}, {"class_name": "Activation", "config": {"name": "Block35_5_Branch_2_Conv2d_0c_3x3_Activation", "trainable": false, "dtype": "float32", "activation": "relu"}, "name": "Block35_5_Branch_2_Conv2d_0c_3x3_Activation", "inbound_nodes": [[["Block35_5_Branch_2_Conv2d_0c_3x3_BatchNorm", 0, 0, {}]]]}, {"class_name": "Concatenate", "config": {"name": "Block35_5_Concatenate", "trainable": false, "dtype": "float32", "axis": 3}, "name": "Block35_5_Concatenate", "inbound_nodes": [[["Block35_5_Branch_0_Conv2d_1x1_Activation", 0, 0, {}], ["Block35_5_Branch_1_Conv2d_0b_3x3_Activation", 0, 0, {}], ["Block35_5_Branch_2_Conv2d_0c_3x3_Activation", 0, 0, {}]]]}, {"class_name": "Conv2D", "config": {"name": "Block35_5_Conv2d_1x1", "trainable": false, "dtype": "float32", "filters": 256, "kernel_size": [1, 1], "strides": [1, 1], "padding": "same", "data_format": "channels_last", "dilation_rate": [1, 1], "activation": "linear", "use_bias": true, "kernel_initializer": {"class_name": "GlorotUniform", "config": {"seed": null}}, "bias_initializer": {"class_name": "Zeros", "config": {}}, "kernel_regularizer": null, "bias_regularizer": null, "activity_regularizer": null, "kernel_constraint": null, "bias_constraint": null}, "name": "Block35_5_Conv2d_1x1", "inbound_nodes": [[["Block35_5_Concatenate", 0, 0, {}]]]}, {"class_name": "Lambda", "config": {"name": "lambda_25", "trainable": false, "dtype": "float32", "function": ["4wIAAAAAAAAAAAAAAAIAAAACAAAAQwAAAHMIAAAAfAB8ARQAUwApAU6pACkC2gF42gVzY2FsZXIB\nAAAAcgEAAAD6DnNyYy9mYWNlbmV0LnB52gdzY2FsaW5nEAAAAHMCAAAAAAE=\n", null, null], "function_type": "lambda", "module": "__main__", "output_shape": [17, 17, 256], "output_shape_type": "raw", "output_shape_module": null, "arguments": {"scale": 0.17}}, "name": "lambda_25", "inbound_nodes": [[["Block35_5_Conv2d_1x1", 0, 0, {}]]]}, {"class_name": "Add", "config": {"name": "add_25", "trainable": false, "dtype": "float32"}, "name": "add_25", "inbound_nodes": [[["Block35_4_Activation", 0, 0, {}], ["lambda_25", 0, 0, {}]]]}, {"class_name": "Activation", "config": {"name": "Block35_5_Activation", "trainable": false, "dtype": "float32", "activation": "relu"}, "name": "Block35_5_Activation", "inbound_nodes": [[["add_25", 0, 0, {}]]]}, {"class_name": "Conv2D", "config": {"name": "Mixed_6a_Branch_1_Conv2d_0a_1x1", "trainable": false, "dtype": "float32", "filters": 192, "kernel_size": [1, 1], "strides": [1, 1], "padding": "same", "data_format": "channels_last", "dilation_rate": [1, 1], "activation": "linear", "use_bias": false, "kernel_initializer": {"class_name": "GlorotUniform", "config": {"seed": null}}, "bias_initializer": {"class_name": "Zeros", "config": {}}, "kernel_regularizer": null, "bias_regularizer": null, "activity_regularizer": null, "kernel_constraint": null, "bias_constraint": null}, "name": "Mixed_6a_Branch_1_Conv2d_0a_1x1", "inbound_nodes": [[["Block35_5_Activation", 0, 0, {}]]]}, {"class_name": "BatchNormalization", "config": {"name": "Mixed_6a_Branch_1_Conv2d_0a_1x1_BatchNorm", "trainable": false, "dtype": "float32", "axis": [3], "momentum": 0.995, "epsilon": 0.001, "center": true, "scale": false, "beta_initializer": {"class_name": "Zeros", "config": {}}, "gamma_initializer": {"class_name": "Ones", "config": {}}, "moving_mean_initializer": {"class_name": "Zeros", "config": {}}, "moving_variance_initializer": {"class_name": "Ones", "config": {}}, "beta_regularizer": null, "gamma_regularizer": null, "beta_constraint": null, "gamma_constraint": null}, "name": "Mixed_6a_Branch_1_Conv2d_0a_1x1_BatchNorm", "inbound_nodes": [[["Mixed_6a_Branch_1_Conv2d_0a_1x1", 0, 0, {}]]]}, {"class_name": "Activation", "config": {"name": "Mixed_6a_Branch_1_Conv2d_0a_1x1_Activation", "trainable": false, "dtype": "float32", "activation": "relu"}, "name": "Mixed_6a_Branch_1_Conv2d_0a_1x1_Activation", "inbound_nodes": [[["Mixed_6a_Branch_1_Conv2d_0a_1x1_BatchNorm", 0, 0, {}]]]}, {"class_name": "Conv2D", "config": {"name": "Mixed_6a_Branch_1_Conv2d_0b_3x3", "trainable": false, "dtype": "float32", "filters": 192, "kernel_size": [3, 3], "strides": [1, 1], "padding": "same", "data_format": "channels_last", "dilation_rate": [1, 1], "activation": "linear", "use_bias": false, "kernel_initializer": {"class_name": "GlorotUniform", "config": {"seed": null}}, "bias_initializer": {"class_name": "Zeros", "config": {}}, "kernel_regularizer": null, "bias_regularizer": null, "activity_regularizer": null, "kernel_constraint": null, "bias_constraint": null}, "name": "Mixed_6a_Branch_1_Conv2d_0b_3x3", "inbound_nodes": [[["Mixed_6a_Branch_1_Conv2d_0a_1x1_Activation", 0, 0, {}]]]}, {"class_name": "BatchNormalization", "config": {"name": "Mixed_6a_Branch_1_Conv2d_0b_3x3_BatchNorm", "trainable": false, "dtype": "float32", "axis": [3], "momentum": 0.995, "epsilon": 0.001, "center": true, "scale": false, "beta_initializer": {"class_name": "Zeros", "config": {}}, "gamma_initializer": {"class_name": "Ones", "config": {}}, "moving_mean_initializer": {"class_name": "Zeros", "config": {}}, "moving_variance_initializer": {"class_name": "Ones", "config": {}}, "beta_regularizer": null, "gamma_regularizer": null, "beta_constraint": null, "gamma_constraint": null}, "name": "Mixed_6a_Branch_1_Conv2d_0b_3x3_BatchNorm", "inbound_nodes": [[["Mixed_6a_Branch_1_Conv2d_0b_3x3", 0, 0, {}]]]}, {"class_name": "Activation", "config": {"name": "Mixed_6a_Branch_1_Conv2d_0b_3x3_Activation", "trainable": false, "dtype": "float32", "activation": "relu"}, "name": "Mixed_6a_Branch_1_Conv2d_0b_3x3_Activation", "inbound_nodes": [[["Mixed_6a_Branch_1_Conv2d_0b_3x3_BatchNorm", 0, 0, {}]]]}, {"class_name": "Conv2D", "config": {"name": "Mixed_6a_Branch_0_Conv2d_1a_3x3", "trainable": false, "dtype": "float32", "filters": 384, "kernel_size": [3, 3], "strides": [2, 2], "padding": "valid", "data_format": "channels_last", "dilation_rate": [1, 1], "activation": "linear", "use_bias": false, "kernel_initializer": {"class_name": "GlorotUniform", "config": {"seed": null}}, "bias_initializer": {"class_name": "Zeros", "config": {}}, "kernel_regularizer": null, "bias_regularizer": null, "activity_regularizer": null, "kernel_constraint": null, "bias_constraint": null}, "name": "Mixed_6a_Branch_0_Conv2d_1a_3x3", "inbound_nodes": [[["Block35_5_Activation", 0, 0, {}]]]}, {"class_name": "Conv2D", "config": {"name": "Mixed_6a_Branch_1_Conv2d_1a_3x3", "trainable": false, "dtype": "float32", "filters": 256, "kernel_size": [3, 3], "strides": [2, 2], "padding": "valid", "data_format": "channels_last", "dilation_rate": [1, 1], "activation": "linear", "use_bias": false, "kernel_initializer": {"class_name": "GlorotUniform", "config": {"seed": null}}, "bias_initializer": {"class_name": "Zeros", "config": {}}, "kernel_regularizer": null, "bias_regularizer": null, "activity_regularizer": null, "kernel_constraint": null, "bias_constraint": null}, "name": "Mixed_6a_Branch_1_Conv2d_1a_3x3", "inbound_nodes": [[["Mixed_6a_Branch_1_Conv2d_0b_3x3_Activation", 0, 0, {}]]]}, {"class_name": "BatchNormalization", "config": {"name": "Mixed_6a_Branch_0_Conv2d_1a_3x3_BatchNorm", "trainable": false, "dtype": "float32", "axis": [3], "momentum": 0.995, "epsilon": 0.001, "center": true, "scale": false, "beta_initializer": {"class_name": "Zeros", "config": {}}, "gamma_initializer": {"class_name": "Ones", "config": {}}, "moving_mean_initializer": {"class_name": "Zeros", "config": {}}, "moving_variance_initializer": {"class_name": "Ones", "config": {}}, "beta_regularizer": null, "gamma_regularizer": null, "beta_constraint": null, "gamma_constraint": null}, "name": "Mixed_6a_Branch_0_Conv2d_1a_3x3_BatchNorm", "inbound_nodes": [[["Mixed_6a_Branch_0_Conv2d_1a_3x3", 0, 0, {}]]]}, {"class_name": "BatchNormalization", "config": {"name": "Mixed_6a_Branch_1_Conv2d_1a_3x3_BatchNorm", "trainable": false, "dtype": "float32", "axis": [3], "momentum": 0.995, "epsilon": 0.001, "center": true, "scale": false, "beta_initializer": {"class_name": "Zeros", "config": {}}, "gamma_initializer": {"class_name": "Ones", "config": {}}, "moving_mean_initializer": {"class_name": "Zeros", "config": {}}, "moving_variance_initializer": {"class_name": "Ones", "config": {}}, "beta_regularizer": null, "gamma_regularizer": null, "beta_constraint": null, "gamma_constraint": null}, "name": "Mixed_6a_Branch_1_Conv2d_1a_3x3_BatchNorm", "inbound_nodes": [[["Mixed_6a_Branch_1_Conv2d_1a_3x3", 0, 0, {}]]]}, {"class_name": "Activation", "config": {"name": "Mixed_6a_Branch_0_Conv2d_1a_3x3_Activation", "trainable": false, "dtype": "float32", "activation": "relu"}, "name": "Mixed_6a_Branch_0_Conv2d_1a_3x3_Activation", "inbound_nodes": [[["Mixed_6a_Branch_0_Conv2d_1a_3x3_BatchNorm", 0, 0, {}]]]}, {"class_name": "Activation", "config": {"name": "Mixed_6a_Branch_1_Conv2d_1a_3x3_Activation", "trainable": false, "dtype": "float32", "activation": "relu"}, "name": "Mixed_6a_Branch_1_Conv2d_1a_3x3_Activation", "inbound_nodes": [[["Mixed_6a_Branch_1_Conv2d_1a_3x3_BatchNorm", 0, 0, {}]]]}, {"class_name": "MaxPooling2D", "config": {"name": "Mixed_6a_Branch_2_MaxPool_1a_3x3", "trainable": false, "dtype": "float32", "pool_size": [3, 3], "padding": "valid", "strides": [2, 2], "data_format": "channels_last"}, "name": "Mixed_6a_Branch_2_MaxPool_1a_3x3", "inbound_nodes": [[["Block35_5_Activation", 0, 0, {}]]]}, {"class_name": "Concatenate", "config": {"name": "Mixed_6a", "trainable": false, "dtype": "float32", "axis": 3}, "name": "Mixed_6a", "inbound_nodes": [[["Mixed_6a_Branch_0_Conv2d_1a_3x3_Activation", 0, 0, {}], ["Mixed_6a_Branch_1_Conv2d_1a_3x3_Activation", 0, 0, {}], ["Mixed_6a_Branch_2_MaxPool_1a_3x3", 0, 0, {}]]]}, {"class_name": "Conv2D", "config": {"name": "Block17_1_Branch_1_Conv2d_0a_1x1", "trainable": false, "dtype": "float32", "filters": 128, "kernel_size": [1, 1], "strides": [1, 1], "padding": "same", "data_format": "channels_last", "dilation_rate": [1, 1], "activation": "linear", "use_bias": false, "kernel_initializer": {"class_name": "GlorotUniform", "config": {"seed": null}}, "bias_initializer": {"class_name": "Zeros", "config": {}}, "kernel_regularizer": null, "bias_regularizer": null, "activity_regularizer": null, "kernel_constraint": null, "bias_constraint": null}, "name": "Block17_1_Branch_1_Conv2d_0a_1x1", "inbound_nodes": [[["Mixed_6a", 0, 0, {}]]]}, {"class_name": "BatchNormalization", "config": {"name": "Block17_1_Branch_1_Conv2d_0a_1x1_BatchNorm", "trainable": false, "dtype": "float32", "axis": [3], "momentum": 0.995, "epsilon": 0.001, "center": true, "scale": false, "beta_initializer": {"class_name": "Zeros", "config": {}}, "gamma_initializer": {"class_name": "Ones", "config": {}}, "moving_mean_initializer": {"class_name": "Zeros", "config": {}}, "moving_variance_initializer": {"class_name": "Ones", "config": {}}, "beta_regularizer": null, "gamma_regularizer": null, "beta_constraint": null, "gamma_constraint": null}, "name": "Block17_1_Branch_1_Conv2d_0a_1x1_BatchNorm", "inbound_nodes": [[["Block17_1_Branch_1_Conv2d_0a_1x1", 0, 0, {}]]]}, {"class_name": "Activation", "config": {"name": "Block17_1_Branch_1_Conv2d_0a_1x1_Activation", "trainable": false, "dtype": "float32", "activation": "relu"}, "name": "Block17_1_Branch_1_Conv2d_0a_1x1_Activation", "inbound_nodes": [[["Block17_1_Branch_1_Conv2d_0a_1x1_BatchNorm", 0, 0, {}]]]}, {"class_name": "Conv2D", "config": {"name": "Block17_1_Branch_1_Conv2d_0b_1x7", "trainable": false, "dtype": "float32", "filters": 128, "kernel_size": [1, 7], "strides": [1, 1], "padding": "same", "data_format": "channels_last", "dilation_rate": [1, 1], "activation": "linear", "use_bias": false, "kernel_initializer": {"class_name": "GlorotUniform", "config": {"seed": null}}, "bias_initializer": {"class_name": "Zeros", "config": {}}, "kernel_regularizer": null, "bias_regularizer": null, "activity_regularizer": null, "kernel_constraint": null, "bias_constraint": null}, "name": "Block17_1_Branch_1_Conv2d_0b_1x7", "inbound_nodes": [[["Block17_1_Branch_1_Conv2d_0a_1x1_Activation", 0, 0, {}]]]}, {"class_name": "BatchNormalization", "config": {"name": "Block17_1_Branch_1_Conv2d_0b_1x7_BatchNorm", "trainable": false, "dtype": "float32", "axis": [3], "momentum": 0.995, "epsilon": 0.001, "center": true, "scale": false, "beta_initializer": {"class_name": "Zeros", "config": {}}, "gamma_initializer": {"class_name": "Ones", "config": {}}, "moving_mean_initializer": {"class_name": "Zeros", "config": {}}, "moving_variance_initializer": {"class_name": "Ones", "config": {}}, "beta_regularizer": null, "gamma_regularizer": null, "beta_constraint": null, "gamma_constraint": null}, "name": "Block17_1_Branch_1_Conv2d_0b_1x7_BatchNorm", "inbound_nodes": [[["Block17_1_Branch_1_Conv2d_0b_1x7", 0, 0, {}]]]}, {"class_name": "Activation", "config": {"name": "Block17_1_Branch_1_Conv2d_0b_1x7_Activation", "trainable": false, "dtype": "float32", "activation": "relu"}, "name": "Block17_1_Branch_1_Conv2d_0b_1x7_Activation", "inbound_nodes": [[["Block17_1_Branch_1_Conv2d_0b_1x7_BatchNorm", 0, 0, {}]]]}, {"class_name": "Conv2D", "config": {"name": "Block17_1_Branch_0_Conv2d_1x1", "trainable": false, "dtype": "float32", "filters": 128, "kernel_size": [1, 1], "strides": [1, 1], "padding": "same", "data_format": "channels_last", "dilation_rate": [1, 1], "activation": "linear", "use_bias": false, "kernel_initializer": {"class_name": "GlorotUniform", "config": {"seed": null}}, "bias_initializer": {"class_name": "Zeros", "config": {}}, "kernel_regularizer": null, "bias_regularizer": null, "activity_regularizer": null, "kernel_constraint": null, "bias_constraint": null}, "name": "Block17_1_Branch_0_Conv2d_1x1", "inbound_nodes": [[["Mixed_6a", 0, 0, {}]]]}, {"class_name": "Conv2D", "config": {"name": "Block17_1_Branch_1_Conv2d_0c_7x1", "trainable": false, "dtype": "float32", "filters": 128, "kernel_size": [7, 1], "strides": [1, 1], "padding": "same", "data_format": "channels_last", "dilation_rate": [1, 1], "activation": "linear", "use_bias": false, "kernel_initializer": {"class_name": "GlorotUniform", "config": {"seed": null}}, "bias_initializer": {"class_name": "Zeros", "config": {}}, "kernel_regularizer": null, "bias_regularizer": null, "activity_regularizer": null, "kernel_constraint": null, "bias_constraint": null}, "name": "Block17_1_Branch_1_Conv2d_0c_7x1", "inbound_nodes": [[["Block17_1_Branch_1_Conv2d_0b_1x7_Activation", 0, 0, {}]]]}, {"class_name": "BatchNormalization", "config": {"name": "Block17_1_Branch_0_Conv2d_1x1_BatchNorm", "trainable": false, "dtype": "float32", "axis": [3], "momentum": 0.995, "epsilon": 0.001, "center": true, "scale": false, "beta_initializer": {"class_name": "Zeros", "config": {}}, "gamma_initializer": {"class_name": "Ones", "config": {}}, "moving_mean_initializer": {"class_name": "Zeros", "config": {}}, "moving_variance_initializer": {"class_name": "Ones", "config": {}}, "beta_regularizer": null, "gamma_regularizer": null, "beta_constraint": null, "gamma_constraint": null}, "name": "Block17_1_Branch_0_Conv2d_1x1_BatchNorm", "inbound_nodes": [[["Block17_1_Branch_0_Conv2d_1x1", 0, 0, {}]]]}, {"class_name": "BatchNormalization", "config": {"name": "Block17_1_Branch_1_Conv2d_0c_7x1_BatchNorm", "trainable": false, "dtype": "float32", "axis": [3], "momentum": 0.995, "epsilon": 0.001, "center": true, "scale": false, "beta_initializer": {"class_name": "Zeros", "config": {}}, "gamma_initializer": {"class_name": "Ones", "config": {}}, "moving_mean_initializer": {"class_name": "Zeros", "config": {}}, "moving_variance_initializer": {"class_name": "Ones", "config": {}}, "beta_regularizer": null, "gamma_regularizer": null, "beta_constraint": null, "gamma_constraint": null}, "name": "Block17_1_Branch_1_Conv2d_0c_7x1_BatchNorm", "inbound_nodes": [[["Block17_1_Branch_1_Conv2d_0c_7x1", 0, 0, {}]]]}, {"class_name": "Activation", "config": {"name": "Block17_1_Branch_0_Conv2d_1x1_Activation", "trainable": false, "dtype": "float32", "activation": "relu"}, "name": "Block17_1_Branch_0_Conv2d_1x1_Activation", "inbound_nodes": [[["Block17_1_Branch_0_Conv2d_1x1_BatchNorm", 0, 0, {}]]]}, {"class_name": "Activation", "config": {"name": "Block17_1_Branch_1_Conv2d_0c_7x1_Activation", "trainable": false, "dtype": "float32", "activation": "relu"}, "name": "Block17_1_Branch_1_Conv2d_0c_7x1_Activation", "inbound_nodes": [[["Block17_1_Branch_1_Conv2d_0c_7x1_BatchNorm", 0, 0, {}]]]}, {"class_name": "Concatenate", "config": {"name": "Block17_1_Concatenate", "trainable": false, "dtype": "float32", "axis": 3}, "name": "Block17_1_Concatenate", "inbound_nodes": [[["Block17_1_Branch_0_Conv2d_1x1_Activation", 0, 0, {}], ["Block17_1_Branch_1_Conv2d_0c_7x1_Activation", 0, 0, {}]]]}, {"class_name": "Conv2D", "config": {"name": "Block17_1_Conv2d_1x1", "trainable": false, "dtype": "float32", "filters": 896, "kernel_size": [1, 1], "strides": [1, 1], "padding": "same", "data_format": "channels_last", "dilation_rate": [1, 1], "activation": "linear", "use_bias": true, "kernel_initializer": {"class_name": "GlorotUniform", "config": {"seed": null}}, "bias_initializer": {"class_name": "Zeros", "config": {}}, "kernel_regularizer": null, "bias_regularizer": null, "activity_regularizer": null, "kernel_constraint": null, "bias_constraint": null}, "name": "Block17_1_Conv2d_1x1", "inbound_nodes": [[["Block17_1_Concatenate", 0, 0, {}]]]}, {"class_name": "Lambda", "config": {"name": "lambda_26", "trainable": false, "dtype": "float32", "function": ["4wIAAAAAAAAAAAAAAAIAAAACAAAAQwAAAHMIAAAAfAB8ARQAUwApAU6pACkC2gF42gVzY2FsZXIB\nAAAAcgEAAAD6DnNyYy9mYWNlbmV0LnB52gdzY2FsaW5nEAAAAHMCAAAAAAE=\n", null, null], "function_type": "lambda", "module": "__main__", "output_shape": [8, 8, 896], "output_shape_type": "raw", "output_shape_module": null, "arguments": {"scale": 0.1}}, "name": "lambda_26", "inbound_nodes": [[["Block17_1_Conv2d_1x1", 0, 0, {}]]]}, {"class_name": "Add", "config": {"name": "add_26", "trainable": false, "dtype": "float32"}, "name": "add_26", "inbound_nodes": [[["Mixed_6a", 0, 0, {}], ["lambda_26", 0, 0, {}]]]}, {"class_name": "Activation", "config": {"name": "Block17_1_Activation", "trainable": false, "dtype": "float32", "activation": "relu"}, "name": "Block17_1_Activation", "inbound_nodes": [[["add_26", 0, 0, {}]]]}, {"class_name": "Conv2D", "config": {"name": "Block17_2_Branch_2_Conv2d_0a_1x1", "trainable": false, "dtype": "float32", "filters": 128, "kernel_size": [1, 1], "strides": [1, 1], "padding": "same", "data_format": "channels_last", "dilation_rate": [1, 1], "activation": "linear", "use_bias": false, "kernel_initializer": {"class_name": "GlorotUniform", "config": {"seed": null}}, "bias_initializer": {"class_name": "Zeros", "config": {}}, "kernel_regularizer": null, "bias_regularizer": null, "activity_regularizer": null, "kernel_constraint": null, "bias_constraint": null}, "name": "Block17_2_Branch_2_Conv2d_0a_1x1", "inbound_nodes": [[["Block17_1_Activation", 0, 0, {}]]]}, {"class_name": "BatchNormalization", "config": {"name": "Block17_2_Branch_2_Conv2d_0a_1x1_BatchNorm", "trainable": false, "dtype": "float32", "axis": [3], "momentum": 0.995, "epsilon": 0.001, "center": true, "scale": false, "beta_initializer": {"class_name": "Zeros", "config": {}}, "gamma_initializer": {"class_name": "Ones", "config": {}}, "moving_mean_initializer": {"class_name": "Zeros", "config": {}}, "moving_variance_initializer": {"class_name": "Ones", "config": {}}, "beta_regularizer": null, "gamma_regularizer": null, "beta_constraint": null, "gamma_constraint": null}, "name": "Block17_2_Branch_2_Conv2d_0a_1x1_BatchNorm", "inbound_nodes": [[["Block17_2_Branch_2_Conv2d_0a_1x1", 0, 0, {}]]]}, {"class_name": "Activation", "config": {"name": "Block17_2_Branch_2_Conv2d_0a_1x1_Activation", "trainable": false, "dtype": "float32", "activation": "relu"}, "name": "Block17_2_Branch_2_Conv2d_0a_1x1_Activation", "inbound_nodes": [[["Block17_2_Branch_2_Conv2d_0a_1x1_BatchNorm", 0, 0, {}]]]}, {"class_name": "Conv2D", "config": {"name": "Block17_2_Branch_2_Conv2d_0b_1x7", "trainable": false, "dtype": "float32", "filters": 128, "kernel_size": [1, 7], "strides": [1, 1], "padding": "same", "data_format": "channels_last", "dilation_rate": [1, 1], "activation": "linear", "use_bias": false, "kernel_initializer": {"class_name": "GlorotUniform", "config": {"seed": null}}, "bias_initializer": {"class_name": "Zeros", "config": {}}, "kernel_regularizer": null, "bias_regularizer": null, "activity_regularizer": null, "kernel_constraint": null, "bias_constraint": null}, "name": "Block17_2_Branch_2_Conv2d_0b_1x7", "inbound_nodes": [[["Block17_2_Branch_2_Conv2d_0a_1x1_Activation", 0, 0, {}]]]}, {"class_name": "BatchNormalization", "config": {"name": "Block17_2_Branch_2_Conv2d_0b_1x7_BatchNorm", "trainable": false, "dtype": "float32", "axis": [3], "momentum": 0.995, "epsilon": 0.001, "center": true, "scale": false, "beta_initializer": {"class_name": "Zeros", "config": {}}, "gamma_initializer": {"class_name": "Ones", "config": {}}, "moving_mean_initializer": {"class_name": "Zeros", "config": {}}, "moving_variance_initializer": {"class_name": "Ones", "config": {}}, "beta_regularizer": null, "gamma_regularizer": null, "beta_constraint": null, "gamma_constraint": null}, "name": "Block17_2_Branch_2_Conv2d_0b_1x7_BatchNorm", "inbound_nodes": [[["Block17_2_Branch_2_Conv2d_0b_1x7", 0, 0, {}]]]}, {"class_name": "Activation", "config": {"name": "Block17_2_Branch_2_Conv2d_0b_1x7_Activation", "trainable": false, "dtype": "float32", "activation": "relu"}, "name": "Block17_2_Branch_2_Conv2d_0b_1x7_Activation", "inbound_nodes": [[["Block17_2_Branch_2_Conv2d_0b_1x7_BatchNorm", 0, 0, {}]]]}, {"class_name": "Conv2D", "config": {"name": "Block17_2_Branch_0_Conv2d_1x1", "trainable": false, "dtype": "float32", "filters": 128, "kernel_size": [1, 1], "strides": [1, 1], "padding": "same", "data_format": "channels_last", "dilation_rate": [1, 1], "activation": "linear", "use_bias": false, "kernel_initializer": {"class_name": "GlorotUniform", "config": {"seed": null}}, "bias_initializer": {"class_name": "Zeros", "config": {}}, "kernel_regularizer": null, "bias_regularizer": null, "activity_regularizer": null, "kernel_constraint": null, "bias_constraint": null}, "name": "Block17_2_Branch_0_Conv2d_1x1", "inbound_nodes": [[["Block17_1_Activation", 0, 0, {}]]]}, {"class_name": "Conv2D", "config": {"name": "Block17_2_Branch_2_Conv2d_0c_7x1", "trainable": false, "dtype": "float32", "filters": 128, "kernel_size": [7, 1], "strides": [1, 1], "padding": "same", "data_format": "channels_last", "dilation_rate": [1, 1], "activation": "linear", "use_bias": false, "kernel_initializer": {"class_name": "GlorotUniform", "config": {"seed": null}}, "bias_initializer": {"class_name": "Zeros", "config": {}}, "kernel_regularizer": null, "bias_regularizer": null, "activity_regularizer": null, "kernel_constraint": null, "bias_constraint": null}, "name": "Block17_2_Branch_2_Conv2d_0c_7x1", "inbound_nodes": [[["Block17_2_Branch_2_Conv2d_0b_1x7_Activation", 0, 0, {}]]]}, {"class_name": "BatchNormalization", "config": {"name": "Block17_2_Branch_0_Conv2d_1x1_BatchNorm", "trainable": false, "dtype": "float32", "axis": [3], "momentum": 0.995, "epsilon": 0.001, "center": true, "scale": false, "beta_initializer": {"class_name": "Zeros", "config": {}}, "gamma_initializer": {"class_name": "Ones", "config": {}}, "moving_mean_initializer": {"class_name": "Zeros", "config": {}}, "moving_variance_initializer": {"class_name": "Ones", "config": {}}, "beta_regularizer": null, "gamma_regularizer": null, "beta_constraint": null, "gamma_constraint": null}, "name": "Block17_2_Branch_0_Conv2d_1x1_BatchNorm", "inbound_nodes": [[["Block17_2_Branch_0_Conv2d_1x1", 0, 0, {}]]]}, {"class_name": "BatchNormalization", "config": {"name": "Block17_2_Branch_2_Conv2d_0c_7x1_BatchNorm", "trainable": false, "dtype": "float32", "axis": [3], "momentum": 0.995, "epsilon": 0.001, "center": true, "scale": false, "beta_initializer": {"class_name": "Zeros", "config": {}}, "gamma_initializer": {"class_name": "Ones", "config": {}}, "moving_mean_initializer": {"class_name": "Zeros", "config": {}}, "moving_variance_initializer": {"class_name": "Ones", "config": {}}, "beta_regularizer": null, "gamma_regularizer": null, "beta_constraint": null, "gamma_constraint": null}, "name": "Block17_2_Branch_2_Conv2d_0c_7x1_BatchNorm", "inbound_nodes": [[["Block17_2_Branch_2_Conv2d_0c_7x1", 0, 0, {}]]]}, {"class_name": "Activation", "config": {"name": "Block17_2_Branch_0_Conv2d_1x1_Activation", "trainable": false, "dtype": "float32", "activation": "relu"}, "name": "Block17_2_Branch_0_Conv2d_1x1_Activation", "inbound_nodes": [[["Block17_2_Branch_0_Conv2d_1x1_BatchNorm", 0, 0, {}]]]}, {"class_name": "Activation", "config": {"name": "Block17_2_Branch_2_Conv2d_0c_7x1_Activation", "trainable": false, "dtype": "float32", "activation": "relu"}, "name": "Block17_2_Branch_2_Conv2d_0c_7x1_Activation", "inbound_nodes": [[["Block17_2_Branch_2_Conv2d_0c_7x1_BatchNorm", 0, 0, {}]]]}, {"class_name": "Concatenate", "config": {"name": "Block17_2_Concatenate", "trainable": false, "dtype": "float32", "axis": 3}, "name": "Block17_2_Concatenate", "inbound_nodes": [[["Block17_2_Branch_0_Conv2d_1x1_Activation", 0, 0, {}], ["Block17_2_Branch_2_Conv2d_0c_7x1_Activation", 0, 0, {}]]]}, {"class_name": "Conv2D", "config": {"name": "Block17_2_Conv2d_1x1", "trainable": false, "dtype": "float32", "filters": 896, "kernel_size": [1, 1], "strides": [1, 1], "padding": "same", "data_format": "channels_last", "dilation_rate": [1, 1], "activation": "linear", "use_bias": true, "kernel_initializer": {"class_name": "GlorotUniform", "config": {"seed": null}}, "bias_initializer": {"class_name": "Zeros", "config": {}}, "kernel_regularizer": null, "bias_regularizer": null, "activity_regularizer": null, "kernel_constraint": null, "bias_constraint": null}, "name": "Block17_2_Conv2d_1x1", "inbound_nodes": [[["Block17_2_Concatenate", 0, 0, {}]]]}, {"class_name": "Lambda", "config": {"name": "lambda_27", "trainable": false, "dtype": "float32", "function": ["4wIAAAAAAAAAAAAAAAIAAAACAAAAQwAAAHMIAAAAfAB8ARQAUwApAU6pACkC2gF42gVzY2FsZXIB\nAAAAcgEAAAD6DnNyYy9mYWNlbmV0LnB52gdzY2FsaW5nEAAAAHMCAAAAAAE=\n", null, null], "function_type": "lambda", "module": "__main__", "output_shape": [8, 8, 896], "output_shape_type": "raw", "output_shape_module": null, "arguments": {"scale": 0.1}}, "name": "lambda_27", "inbound_nodes": [[["Block17_2_Conv2d_1x1", 0, 0, {}]]]}, {"class_name": "Add", "config": {"name": "add_27", "trainable": false, "dtype": "float32"}, "name": "add_27", "inbound_nodes": [[["Block17_1_Activation", 0, 0, {}], ["lambda_27", 0, 0, {}]]]}, {"class_name": "Activation", "config": {"name": "Block17_2_Activation", "trainable": false, "dtype": "float32", "activation": "relu"}, "name": "Block17_2_Activation", "inbound_nodes": [[["add_27", 0, 0, {}]]]}, {"class_name": "Conv2D", "config": {"name": "Block17_3_Branch_3_Conv2d_0a_1x1", "trainable": false, "dtype": "float32", "filters": 128, "kernel_size": [1, 1], "strides": [1, 1], "padding": "same", "data_format": "channels_last", "dilation_rate": [1, 1], "activation": "linear", "use_bias": false, "kernel_initializer": {"class_name": "GlorotUniform", "config": {"seed": null}}, "bias_initializer": {"class_name": "Zeros", "config": {}}, "kernel_regularizer": null, "bias_regularizer": null, "activity_regularizer": null, "kernel_constraint": null, "bias_constraint": null}, "name": "Block17_3_Branch_3_Conv2d_0a_1x1", "inbound_nodes": [[["Block17_2_Activation", 0, 0, {}]]]}, {"class_name": "BatchNormalization", "config": {"name": "Block17_3_Branch_3_Conv2d_0a_1x1_BatchNorm", "trainable": false, "dtype": "float32", "axis": [3], "momentum": 0.995, "epsilon": 0.001, "center": true, "scale": false, "beta_initializer": {"class_name": "Zeros", "config": {}}, "gamma_initializer": {"class_name": "Ones", "config": {}}, "moving_mean_initializer": {"class_name": "Zeros", "config": {}}, "moving_variance_initializer": {"class_name": "Ones", "config": {}}, "beta_regularizer": null, "gamma_regularizer": null, "beta_constraint": null, "gamma_constraint": null}, "name": "Block17_3_Branch_3_Conv2d_0a_1x1_BatchNorm", "inbound_nodes": [[["Block17_3_Branch_3_Conv2d_0a_1x1", 0, 0, {}]]]}, {"class_name": "Activation", "config": {"name": "Block17_3_Branch_3_Conv2d_0a_1x1_Activation", "trainable": false, "dtype": "float32", "activation": "relu"}, "name": "Block17_3_Branch_3_Conv2d_0a_1x1_Activation", "inbound_nodes": [[["Block17_3_Branch_3_Conv2d_0a_1x1_BatchNorm", 0, 0, {}]]]}, {"class_name": "Conv2D", "config": {"name": "Block17_3_Branch_3_Conv2d_0b_1x7", "trainable": false, "dtype": "float32", "filters": 128, "kernel_size": [1, 7], "strides": [1, 1], "padding": "same", "data_format": "channels_last", "dilation_rate": [1, 1], "activation": "linear", "use_bias": false, "kernel_initializer": {"class_name": "GlorotUniform", "config": {"seed": null}}, "bias_initializer": {"class_name": "Zeros", "config": {}}, "kernel_regularizer": null, "bias_regularizer": null, "activity_regularizer": null, "kernel_constraint": null, "bias_constraint": null}, "name": "Block17_3_Branch_3_Conv2d_0b_1x7", "inbound_nodes": [[["Block17_3_Branch_3_Conv2d_0a_1x1_Activation", 0, 0, {}]]]}, {"class_name": "BatchNormalization", "config": {"name": "Block17_3_Branch_3_Conv2d_0b_1x7_BatchNorm", "trainable": false, "dtype": "float32", "axis": [3], "momentum": 0.995, "epsilon": 0.001, "center": true, "scale": false, "beta_initializer": {"class_name": "Zeros", "config": {}}, "gamma_initializer": {"class_name": "Ones", "config": {}}, "moving_mean_initializer": {"class_name": "Zeros", "config": {}}, "moving_variance_initializer": {"class_name": "Ones", "config": {}}, "beta_regularizer": null, "gamma_regularizer": null, "beta_constraint": null, "gamma_constraint": null}, "name": "Block17_3_Branch_3_Conv2d_0b_1x7_BatchNorm", "inbound_nodes": [[["Block17_3_Branch_3_Conv2d_0b_1x7", 0, 0, {}]]]}, {"class_name": "Activation", "config": {"name": "Block17_3_Branch_3_Conv2d_0b_1x7_Activation", "trainable": false, "dtype": "float32", "activation": "relu"}, "name": "Block17_3_Branch_3_Conv2d_0b_1x7_Activation", "inbound_nodes": [[["Block17_3_Branch_3_Conv2d_0b_1x7_BatchNorm", 0, 0, {}]]]}, {"class_name": "Conv2D", "config": {"name": "Block17_3_Branch_0_Conv2d_1x1", "trainable": false, "dtype": "float32", "filters": 128, "kernel_size": [1, 1], "strides": [1, 1], "padding": "same", "data_format": "channels_last", "dilation_rate": [1, 1], "activation": "linear", "use_bias": false, "kernel_initializer": {"class_name": "GlorotUniform", "config": {"seed": null}}, "bias_initializer": {"class_name": "Zeros", "config": {}}, "kernel_regularizer": null, "bias_regularizer": null, "activity_regularizer": null, "kernel_constraint": null, "bias_constraint": null}, "name": "Block17_3_Branch_0_Conv2d_1x1", "inbound_nodes": [[["Block17_2_Activation", 0, 0, {}]]]}, {"class_name": "Conv2D", "config": {"name": "Block17_3_Branch_3_Conv2d_0c_7x1", "trainable": false, "dtype": "float32", "filters": 128, "kernel_size": [7, 1], "strides": [1, 1], "padding": "same", "data_format": "channels_last", "dilation_rate": [1, 1], "activation": "linear", "use_bias": false, "kernel_initializer": {"class_name": "GlorotUniform", "config": {"seed": null}}, "bias_initializer": {"class_name": "Zeros", "config": {}}, "kernel_regularizer": null, "bias_regularizer": null, "activity_regularizer": null, "kernel_constraint": null, "bias_constraint": null}, "name": "Block17_3_Branch_3_Conv2d_0c_7x1", "inbound_nodes": [[["Block17_3_Branch_3_Conv2d_0b_1x7_Activation", 0, 0, {}]]]}, {"class_name": "BatchNormalization", "config": {"name": "Block17_3_Branch_0_Conv2d_1x1_BatchNorm", "trainable": false, "dtype": "float32", "axis": [3], "momentum": 0.995, "epsilon": 0.001, "center": true, "scale": false, "beta_initializer": {"class_name": "Zeros", "config": {}}, "gamma_initializer": {"class_name": "Ones", "config": {}}, "moving_mean_initializer": {"class_name": "Zeros", "config": {}}, "moving_variance_initializer": {"class_name": "Ones", "config": {}}, "beta_regularizer": null, "gamma_regularizer": null, "beta_constraint": null, "gamma_constraint": null}, "name": "Block17_3_Branch_0_Conv2d_1x1_BatchNorm", "inbound_nodes": [[["Block17_3_Branch_0_Conv2d_1x1", 0, 0, {}]]]}, {"class_name": "BatchNormalization", "config": {"name": "Block17_3_Branch_3_Conv2d_0c_7x1_BatchNorm", "trainable": false, "dtype": "float32", "axis": [3], "momentum": 0.995, "epsilon": 0.001, "center": true, "scale": false, "beta_initializer": {"class_name": "Zeros", "config": {}}, "gamma_initializer": {"class_name": "Ones", "config": {}}, "moving_mean_initializer": {"class_name": "Zeros", "config": {}}, "moving_variance_initializer": {"class_name": "Ones", "config": {}}, "beta_regularizer": null, "gamma_regularizer": null, "beta_constraint": null, "gamma_constraint": null}, "name": "Block17_3_Branch_3_Conv2d_0c_7x1_BatchNorm", "inbound_nodes": [[["Block17_3_Branch_3_Conv2d_0c_7x1", 0, 0, {}]]]}, {"class_name": "Activation", "config": {"name": "Block17_3_Branch_0_Conv2d_1x1_Activation", "trainable": false, "dtype": "float32", "activation": "relu"}, "name": "Block17_3_Branch_0_Conv2d_1x1_Activation", "inbound_nodes": [[["Block17_3_Branch_0_Conv2d_1x1_BatchNorm", 0, 0, {}]]]}, {"class_name": "Activation", "config": {"name": "Block17_3_Branch_3_Conv2d_0c_7x1_Activation", "trainable": false, "dtype": "float32", "activation": "relu"}, "name": "Block17_3_Branch_3_Conv2d_0c_7x1_Activation", "inbound_nodes": [[["Block17_3_Branch_3_Conv2d_0c_7x1_BatchNorm", 0, 0, {}]]]}, {"class_name": "Concatenate", "config": {"name": "Block17_3_Concatenate", "trainable": false, "dtype": "float32", "axis": 3}, "name": "Block17_3_Concatenate", "inbound_nodes": [[["Block17_3_Branch_0_Conv2d_1x1_Activation", 0, 0, {}], ["Block17_3_Branch_3_Conv2d_0c_7x1_Activation", 0, 0, {}]]]}, {"class_name": "Conv2D", "config": {"name": "Block17_3_Conv2d_1x1", "trainable": false, "dtype": "float32", "filters": 896, "kernel_size": [1, 1], "strides": [1, 1], "padding": "same", "data_format": "channels_last", "dilation_rate": [1, 1], "activation": "linear", "use_bias": true, "kernel_initializer": {"class_name": "GlorotUniform", "config": {"seed": null}}, "bias_initializer": {"class_name": "Zeros", "config": {}}, "kernel_regularizer": null, "bias_regularizer": null, "activity_regularizer": null, "kernel_constraint": null, "bias_constraint": null}, "name": "Block17_3_Conv2d_1x1", "inbound_nodes": [[["Block17_3_Concatenate", 0, 0, {}]]]}, {"class_name": "Lambda", "config": {"name": "lambda_28", "trainable": false, "dtype": "float32", "function": ["4wIAAAAAAAAAAAAAAAIAAAACAAAAQwAAAHMIAAAAfAB8ARQAUwApAU6pACkC2gF42gVzY2FsZXIB\nAAAAcgEAAAD6DnNyYy9mYWNlbmV0LnB52gdzY2FsaW5nEAAAAHMCAAAAAAE=\n", null, null], "function_type": "lambda", "module": "__main__", "output_shape": [8, 8, 896], "output_shape_type": "raw", "output_shape_module": null, "arguments": {"scale": 0.1}}, "name": "lambda_28", "inbound_nodes": [[["Block17_3_Conv2d_1x1", 0, 0, {}]]]}, {"class_name": "Add", "config": {"name": "add_28", "trainable": false, "dtype": "float32"}, "name": "add_28", "inbound_nodes": [[["Block17_2_Activation", 0, 0, {}], ["lambda_28", 0, 0, {}]]]}, {"class_name": "Activation", "config": {"name": "Block17_3_Activation", "trainable": false, "dtype": "float32", "activation": "relu"}, "name": "Block17_3_Activation", "inbound_nodes": [[["add_28", 0, 0, {}]]]}, {"class_name": "Conv2D", "config": {"name": "Block17_4_Branch_4_Conv2d_0a_1x1", "trainable": false, "dtype": "float32", "filters": 128, "kernel_size": [1, 1], "strides": [1, 1], "padding": "same", "data_format": "channels_last", "dilation_rate": [1, 1], "activation": "linear", "use_bias": false, "kernel_initializer": {"class_name": "GlorotUniform", "config": {"seed": null}}, "bias_initializer": {"class_name": "Zeros", "config": {}}, "kernel_regularizer": null, "bias_regularizer": null, "activity_regularizer": null, "kernel_constraint": null, "bias_constraint": null}, "name": "Block17_4_Branch_4_Conv2d_0a_1x1", "inbound_nodes": [[["Block17_3_Activation", 0, 0, {}]]]}, {"class_name": "BatchNormalization", "config": {"name": "Block17_4_Branch_4_Conv2d_0a_1x1_BatchNorm", "trainable": false, "dtype": "float32", "axis": [3], "momentum": 0.995, "epsilon": 0.001, "center": true, "scale": false, "beta_initializer": {"class_name": "Zeros", "config": {}}, "gamma_initializer": {"class_name": "Ones", "config": {}}, "moving_mean_initializer": {"class_name": "Zeros", "config": {}}, "moving_variance_initializer": {"class_name": "Ones", "config": {}}, "beta_regularizer": null, "gamma_regularizer": null, "beta_constraint": null, "gamma_constraint": null}, "name": "Block17_4_Branch_4_Conv2d_0a_1x1_BatchNorm", "inbound_nodes": [[["Block17_4_Branch_4_Conv2d_0a_1x1", 0, 0, {}]]]}, {"class_name": "Activation", "config": {"name": "Block17_4_Branch_4_Conv2d_0a_1x1_Activation", "trainable": false, "dtype": "float32", "activation": "relu"}, "name": "Block17_4_Branch_4_Conv2d_0a_1x1_Activation", "inbound_nodes": [[["Block17_4_Branch_4_Conv2d_0a_1x1_BatchNorm", 0, 0, {}]]]}, {"class_name": "Conv2D", "config": {"name": "Block17_4_Branch_4_Conv2d_0b_1x7", "trainable": false, "dtype": "float32", "filters": 128, "kernel_size": [1, 7], "strides": [1, 1], "padding": "same", "data_format": "channels_last", "dilation_rate": [1, 1], "activation": "linear", "use_bias": false, "kernel_initializer": {"class_name": "GlorotUniform", "config": {"seed": null}}, "bias_initializer": {"class_name": "Zeros", "config": {}}, "kernel_regularizer": null, "bias_regularizer": null, "activity_regularizer": null, "kernel_constraint": null, "bias_constraint": null}, "name": "Block17_4_Branch_4_Conv2d_0b_1x7", "inbound_nodes": [[["Block17_4_Branch_4_Conv2d_0a_1x1_Activation", 0, 0, {}]]]}, {"class_name": "BatchNormalization", "config": {"name": "Block17_4_Branch_4_Conv2d_0b_1x7_BatchNorm", "trainable": false, "dtype": "float32", "axis": [3], "momentum": 0.995, "epsilon": 0.001, "center": true, "scale": false, "beta_initializer": {"class_name": "Zeros", "config": {}}, "gamma_initializer": {"class_name": "Ones", "config": {}}, "moving_mean_initializer": {"class_name": "Zeros", "config": {}}, "moving_variance_initializer": {"class_name": "Ones", "config": {}}, "beta_regularizer": null, "gamma_regularizer": null, "beta_constraint": null, "gamma_constraint": null}, "name": "Block17_4_Branch_4_Conv2d_0b_1x7_BatchNorm", "inbound_nodes": [[["Block17_4_Branch_4_Conv2d_0b_1x7", 0, 0, {}]]]}, {"class_name": "Activation", "config": {"name": "Block17_4_Branch_4_Conv2d_0b_1x7_Activation", "trainable": false, "dtype": "float32", "activation": "relu"}, "name": "Block17_4_Branch_4_Conv2d_0b_1x7_Activation", "inbound_nodes": [[["Block17_4_Branch_4_Conv2d_0b_1x7_BatchNorm", 0, 0, {}]]]}, {"class_name": "Conv2D", "config": {"name": "Block17_4_Branch_0_Conv2d_1x1", "trainable": false, "dtype": "float32", "filters": 128, "kernel_size": [1, 1], "strides": [1, 1], "padding": "same", "data_format": "channels_last", "dilation_rate": [1, 1], "activation": "linear", "use_bias": false, "kernel_initializer": {"class_name": "GlorotUniform", "config": {"seed": null}}, "bias_initializer": {"class_name": "Zeros", "config": {}}, "kernel_regularizer": null, "bias_regularizer": null, "activity_regularizer": null, "kernel_constraint": null, "bias_constraint": null}, "name": "Block17_4_Branch_0_Conv2d_1x1", "inbound_nodes": [[["Block17_3_Activation", 0, 0, {}]]]}, {"class_name": "Conv2D", "config": {"name": "Block17_4_Branch_4_Conv2d_0c_7x1", "trainable": false, "dtype": "float32", "filters": 128, "kernel_size": [7, 1], "strides": [1, 1], "padding": "same", "data_format": "channels_last", "dilation_rate": [1, 1], "activation": "linear", "use_bias": false, "kernel_initializer": {"class_name": "GlorotUniform", "config": {"seed": null}}, "bias_initializer": {"class_name": "Zeros", "config": {}}, "kernel_regularizer": null, "bias_regularizer": null, "activity_regularizer": null, "kernel_constraint": null, "bias_constraint": null}, "name": "Block17_4_Branch_4_Conv2d_0c_7x1", "inbound_nodes": [[["Block17_4_Branch_4_Conv2d_0b_1x7_Activation", 0, 0, {}]]]}, {"class_name": "BatchNormalization", "config": {"name": "Block17_4_Branch_0_Conv2d_1x1_BatchNorm", "trainable": false, "dtype": "float32", "axis": [3], "momentum": 0.995, "epsilon": 0.001, "center": true, "scale": false, "beta_initializer": {"class_name": "Zeros", "config": {}}, "gamma_initializer": {"class_name": "Ones", "config": {}}, "moving_mean_initializer": {"class_name": "Zeros", "config": {}}, "moving_variance_initializer": {"class_name": "Ones", "config": {}}, "beta_regularizer": null, "gamma_regularizer": null, "beta_constraint": null, "gamma_constraint": null}, "name": "Block17_4_Branch_0_Conv2d_1x1_BatchNorm", "inbound_nodes": [[["Block17_4_Branch_0_Conv2d_1x1", 0, 0, {}]]]}, {"class_name": "BatchNormalization", "config": {"name": "Block17_4_Branch_4_Conv2d_0c_7x1_BatchNorm", "trainable": false, "dtype": "float32", "axis": [3], "momentum": 0.995, "epsilon": 0.001, "center": true, "scale": false, "beta_initializer": {"class_name": "Zeros", "config": {}}, "gamma_initializer": {"class_name": "Ones", "config": {}}, "moving_mean_initializer": {"class_name": "Zeros", "config": {}}, "moving_variance_initializer": {"class_name": "Ones", "config": {}}, "beta_regularizer": null, "gamma_regularizer": null, "beta_constraint": null, "gamma_constraint": null}, "name": "Block17_4_Branch_4_Conv2d_0c_7x1_BatchNorm", "inbound_nodes": [[["Block17_4_Branch_4_Conv2d_0c_7x1", 0, 0, {}]]]}, {"class_name": "Activation", "config": {"name": "Block17_4_Branch_0_Conv2d_1x1_Activation", "trainable": false, "dtype": "float32", "activation": "relu"}, "name": "Block17_4_Branch_0_Conv2d_1x1_Activation", "inbound_nodes": [[["Block17_4_Branch_0_Conv2d_1x1_BatchNorm", 0, 0, {}]]]}, {"class_name": "Activation", "config": {"name": "Block17_4_Branch_4_Conv2d_0c_7x1_Activation", "trainable": false, "dtype": "float32", "activation": "relu"}, "name": "Block17_4_Branch_4_Conv2d_0c_7x1_Activation", "inbound_nodes": [[["Block17_4_Branch_4_Conv2d_0c_7x1_BatchNorm", 0, 0, {}]]]}, {"class_name": "Concatenate", "config": {"name": "Block17_4_Concatenate", "trainable": false, "dtype": "float32", "axis": 3}, "name": "Block17_4_Concatenate", "inbound_nodes": [[["Block17_4_Branch_0_Conv2d_1x1_Activation", 0, 0, {}], ["Block17_4_Branch_4_Conv2d_0c_7x1_Activation", 0, 0, {}]]]}, {"class_name": "Conv2D", "config": {"name": "Block17_4_Conv2d_1x1", "trainable": false, "dtype": "float32", "filters": 896, "kernel_size": [1, 1], "strides": [1, 1], "padding": "same", "data_format": "channels_last", "dilation_rate": [1, 1], "activation": "linear", "use_bias": true, "kernel_initializer": {"class_name": "GlorotUniform", "config": {"seed": null}}, "bias_initializer": {"class_name": "Zeros", "config": {}}, "kernel_regularizer": null, "bias_regularizer": null, "activity_regularizer": null, "kernel_constraint": null, "bias_constraint": null}, "name": "Block17_4_Conv2d_1x1", "inbound_nodes": [[["Block17_4_Concatenate", 0, 0, {}]]]}, {"class_name": "Lambda", "config": {"name": "lambda_29", "trainable": false, "dtype": "float32", "function": ["4wIAAAAAAAAAAAAAAAIAAAACAAAAQwAAAHMIAAAAfAB8ARQAUwApAU6pACkC2gF42gVzY2FsZXIB\nAAAAcgEAAAD6DnNyYy9mYWNlbmV0LnB52gdzY2FsaW5nEAAAAHMCAAAAAAE=\n", null, null], "function_type": "lambda", "module": "__main__", "output_shape": [8, 8, 896], "output_shape_type": "raw", "output_shape_module": null, "arguments": {"scale": 0.1}}, "name": "lambda_29", "inbound_nodes": [[["Block17_4_Conv2d_1x1", 0, 0, {}]]]}, {"class_name": "Add", "config": {"name": "add_29", "trainable": false, "dtype": "float32"}, "name": "add_29", "inbound_nodes": [[["Block17_3_Activation", 0, 0, {}], ["lambda_29", 0, 0, {}]]]}, {"class_name": "Activation", "config": {"name": "Block17_4_Activation", "trainable": false, "dtype": "float32", "activation": "relu"}, "name": "Block17_4_Activation", "inbound_nodes": [[["add_29", 0, 0, {}]]]}, {"class_name": "Conv2D", "config": {"name": "Block17_5_Branch_5_Conv2d_0a_1x1", "trainable": false, "dtype": "float32", "filters": 128, "kernel_size": [1, 1], "strides": [1, 1], "padding": "same", "data_format": "channels_last", "dilation_rate": [1, 1], "activation": "linear", "use_bias": false, "kernel_initializer": {"class_name": "GlorotUniform", "config": {"seed": null}}, "bias_initializer": {"class_name": "Zeros", "config": {}}, "kernel_regularizer": null, "bias_regularizer": null, "activity_regularizer": null, "kernel_constraint": null, "bias_constraint": null}, "name": "Block17_5_Branch_5_Conv2d_0a_1x1", "inbound_nodes": [[["Block17_4_Activation", 0, 0, {}]]]}, {"class_name": "BatchNormalization", "config": {"name": "Block17_5_Branch_5_Conv2d_0a_1x1_BatchNorm", "trainable": false, "dtype": "float32", "axis": [3], "momentum": 0.995, "epsilon": 0.001, "center": true, "scale": false, "beta_initializer": {"class_name": "Zeros", "config": {}}, "gamma_initializer": {"class_name": "Ones", "config": {}}, "moving_mean_initializer": {"class_name": "Zeros", "config": {}}, "moving_variance_initializer": {"class_name": "Ones", "config": {}}, "beta_regularizer": null, "gamma_regularizer": null, "beta_constraint": null, "gamma_constraint": null}, "name": "Block17_5_Branch_5_Conv2d_0a_1x1_BatchNorm", "inbound_nodes": [[["Block17_5_Branch_5_Conv2d_0a_1x1", 0, 0, {}]]]}, {"class_name": "Activation", "config": {"name": "Block17_5_Branch_5_Conv2d_0a_1x1_Activation", "trainable": false, "dtype": "float32", "activation": "relu"}, "name": "Block17_5_Branch_5_Conv2d_0a_1x1_Activation", "inbound_nodes": [[["Block17_5_Branch_5_Conv2d_0a_1x1_BatchNorm", 0, 0, {}]]]}, {"class_name": "Conv2D", "config": {"name": "Block17_5_Branch_5_Conv2d_0b_1x7", "trainable": false, "dtype": "float32", "filters": 128, "kernel_size": [1, 7], "strides": [1, 1], "padding": "same", "data_format": "channels_last", "dilation_rate": [1, 1], "activation": "linear", "use_bias": false, "kernel_initializer": {"class_name": "GlorotUniform", "config": {"seed": null}}, "bias_initializer": {"class_name": "Zeros", "config": {}}, "kernel_regularizer": null, "bias_regularizer": null, "activity_regularizer": null, "kernel_constraint": null, "bias_constraint": null}, "name": "Block17_5_Branch_5_Conv2d_0b_1x7", "inbound_nodes": [[["Block17_5_Branch_5_Conv2d_0a_1x1_Activation", 0, 0, {}]]]}, {"class_name": "BatchNormalization", "config": {"name": "Block17_5_Branch_5_Conv2d_0b_1x7_BatchNorm", "trainable": false, "dtype": "float32", "axis": [3], "momentum": 0.995, "epsilon": 0.001, "center": true, "scale": false, "beta_initializer": {"class_name": "Zeros", "config": {}}, "gamma_initializer": {"class_name": "Ones", "config": {}}, "moving_mean_initializer": {"class_name": "Zeros", "config": {}}, "moving_variance_initializer": {"class_name": "Ones", "config": {}}, "beta_regularizer": null, "gamma_regularizer": null, "beta_constraint": null, "gamma_constraint": null}, "name": "Block17_5_Branch_5_Conv2d_0b_1x7_BatchNorm", "inbound_nodes": [[["Block17_5_Branch_5_Conv2d_0b_1x7", 0, 0, {}]]]}, {"class_name": "Activation", "config": {"name": "Block17_5_Branch_5_Conv2d_0b_1x7_Activation", "trainable": false, "dtype": "float32", "activation": "relu"}, "name": "Block17_5_Branch_5_Conv2d_0b_1x7_Activation", "inbound_nodes": [[["Block17_5_Branch_5_Conv2d_0b_1x7_BatchNorm", 0, 0, {}]]]}, {"class_name": "Conv2D", "config": {"name": "Block17_5_Branch_0_Conv2d_1x1", "trainable": false, "dtype": "float32", "filters": 128, "kernel_size": [1, 1], "strides": [1, 1], "padding": "same", "data_format": "channels_last", "dilation_rate": [1, 1], "activation": "linear", "use_bias": false, "kernel_initializer": {"class_name": "GlorotUniform", "config": {"seed": null}}, "bias_initializer": {"class_name": "Zeros", "config": {}}, "kernel_regularizer": null, "bias_regularizer": null, "activity_regularizer": null, "kernel_constraint": null, "bias_constraint": null}, "name": "Block17_5_Branch_0_Conv2d_1x1", "inbound_nodes": [[["Block17_4_Activation", 0, 0, {}]]]}, {"class_name": "Conv2D", "config": {"name": "Block17_5_Branch_5_Conv2d_0c_7x1", "trainable": false, "dtype": "float32", "filters": 128, "kernel_size": [7, 1], "strides": [1, 1], "padding": "same", "data_format": "channels_last", "dilation_rate": [1, 1], "activation": "linear", "use_bias": false, "kernel_initializer": {"class_name": "GlorotUniform", "config": {"seed": null}}, "bias_initializer": {"class_name": "Zeros", "config": {}}, "kernel_regularizer": null, "bias_regularizer": null, "activity_regularizer": null, "kernel_constraint": null, "bias_constraint": null}, "name": "Block17_5_Branch_5_Conv2d_0c_7x1", "inbound_nodes": [[["Block17_5_Branch_5_Conv2d_0b_1x7_Activation", 0, 0, {}]]]}, {"class_name": "BatchNormalization", "config": {"name": "Block17_5_Branch_0_Conv2d_1x1_BatchNorm", "trainable": false, "dtype": "float32", "axis": [3], "momentum": 0.995, "epsilon": 0.001, "center": true, "scale": false, "beta_initializer": {"class_name": "Zeros", "config": {}}, "gamma_initializer": {"class_name": "Ones", "config": {}}, "moving_mean_initializer": {"class_name": "Zeros", "config": {}}, "moving_variance_initializer": {"class_name": "Ones", "config": {}}, "beta_regularizer": null, "gamma_regularizer": null, "beta_constraint": null, "gamma_constraint": null}, "name": "Block17_5_Branch_0_Conv2d_1x1_BatchNorm", "inbound_nodes": [[["Block17_5_Branch_0_Conv2d_1x1", 0, 0, {}]]]}, {"class_name": "BatchNormalization", "config": {"name": "Block17_5_Branch_5_Conv2d_0c_7x1_BatchNorm", "trainable": false, "dtype": "float32", "axis": [3], "momentum": 0.995, "epsilon": 0.001, "center": true, "scale": false, "beta_initializer": {"class_name": "Zeros", "config": {}}, "gamma_initializer": {"class_name": "Ones", "config": {}}, "moving_mean_initializer": {"class_name": "Zeros", "config": {}}, "moving_variance_initializer": {"class_name": "Ones", "config": {}}, "beta_regularizer": null, "gamma_regularizer": null, "beta_constraint": null, "gamma_constraint": null}, "name": "Block17_5_Branch_5_Conv2d_0c_7x1_BatchNorm", "inbound_nodes": [[["Block17_5_Branch_5_Conv2d_0c_7x1", 0, 0, {}]]]}, {"class_name": "Activation", "config": {"name": "Block17_5_Branch_0_Conv2d_1x1_Activation", "trainable": false, "dtype": "float32", "activation": "relu"}, "name": "Block17_5_Branch_0_Conv2d_1x1_Activation", "inbound_nodes": [[["Block17_5_Branch_0_Conv2d_1x1_BatchNorm", 0, 0, {}]]]}, {"class_name": "Activation", "config": {"name": "Block17_5_Branch_5_Conv2d_0c_7x1_Activation", "trainable": false, "dtype": "float32", "activation": "relu"}, "name": "Block17_5_Branch_5_Conv2d_0c_7x1_Activation", "inbound_nodes": [[["Block17_5_Branch_5_Conv2d_0c_7x1_BatchNorm", 0, 0, {}]]]}, {"class_name": "Concatenate", "config": {"name": "Block17_5_Concatenate", "trainable": false, "dtype": "float32", "axis": 3}, "name": "Block17_5_Concatenate", "inbound_nodes": [[["Block17_5_Branch_0_Conv2d_1x1_Activation", 0, 0, {}], ["Block17_5_Branch_5_Conv2d_0c_7x1_Activation", 0, 0, {}]]]}, {"class_name": "Conv2D", "config": {"name": "Block17_5_Conv2d_1x1", "trainable": false, "dtype": "float32", "filters": 896, "kernel_size": [1, 1], "strides": [1, 1], "padding": "same", "data_format": "channels_last", "dilation_rate": [1, 1], "activation": "linear", "use_bias": true, "kernel_initializer": {"class_name": "GlorotUniform", "config": {"seed": null}}, "bias_initializer": {"class_name": "Zeros", "config": {}}, "kernel_regularizer": null, "bias_regularizer": null, "activity_regularizer": null, "kernel_constraint": null, "bias_constraint": null}, "name": "Block17_5_Conv2d_1x1", "inbound_nodes": [[["Block17_5_Concatenate", 0, 0, {}]]]}, {"class_name": "Lambda", "config": {"name": "lambda_30", "trainable": false, "dtype": "float32", "function": ["4wIAAAAAAAAAAAAAAAIAAAACAAAAQwAAAHMIAAAAfAB8ARQAUwApAU6pACkC2gF42gVzY2FsZXIB\nAAAAcgEAAAD6DnNyYy9mYWNlbmV0LnB52gdzY2FsaW5nEAAAAHMCAAAAAAE=\n", null, null], "function_type": "lambda", "module": "__main__", "output_shape": [8, 8, 896], "output_shape_type": "raw", "output_shape_module": null, "arguments": {"scale": 0.1}}, "name": "lambda_30", "inbound_nodes": [[["Block17_5_Conv2d_1x1", 0, 0, {}]]]}, {"class_name": "Add", "config": {"name": "add_30", "trainable": false, "dtype": "float32"}, "name": "add_30", "inbound_nodes": [[["Block17_4_Activation", 0, 0, {}], ["lambda_30", 0, 0, {}]]]}, {"class_name": "Activation", "config": {"name": "Block17_5_Activation", "trainable": false, "dtype": "float32", "activation": "relu"}, "name": "Block17_5_Activation", "inbound_nodes": [[["add_30", 0, 0, {}]]]}, {"class_name": "Conv2D", "config": {"name": "Block17_6_Branch_6_Conv2d_0a_1x1", "trainable": false, "dtype": "float32", "filters": 128, "kernel_size": [1, 1], "strides": [1, 1], "padding": "same", "data_format": "channels_last", "dilation_rate": [1, 1], "activation": "linear", "use_bias": false, "kernel_initializer": {"class_name": "GlorotUniform", "config": {"seed": null}}, "bias_initializer": {"class_name": "Zeros", "config": {}}, "kernel_regularizer": null, "bias_regularizer": null, "activity_regularizer": null, "kernel_constraint": null, "bias_constraint": null}, "name": "Block17_6_Branch_6_Conv2d_0a_1x1", "inbound_nodes": [[["Block17_5_Activation", 0, 0, {}]]]}, {"class_name": "BatchNormalization", "config": {"name": "Block17_6_Branch_6_Conv2d_0a_1x1_BatchNorm", "trainable": false, "dtype": "float32", "axis": [3], "momentum": 0.995, "epsilon": 0.001, "center": true, "scale": false, "beta_initializer": {"class_name": "Zeros", "config": {}}, "gamma_initializer": {"class_name": "Ones", "config": {}}, "moving_mean_initializer": {"class_name": "Zeros", "config": {}}, "moving_variance_initializer": {"class_name": "Ones", "config": {}}, "beta_regularizer": null, "gamma_regularizer": null, "beta_constraint": null, "gamma_constraint": null}, "name": "Block17_6_Branch_6_Conv2d_0a_1x1_BatchNorm", "inbound_nodes": [[["Block17_6_Branch_6_Conv2d_0a_1x1", 0, 0, {}]]]}, {"class_name": "Activation", "config": {"name": "Block17_6_Branch_6_Conv2d_0a_1x1_Activation", "trainable": false, "dtype": "float32", "activation": "relu"}, "name": "Block17_6_Branch_6_Conv2d_0a_1x1_Activation", "inbound_nodes": [[["Block17_6_Branch_6_Conv2d_0a_1x1_BatchNorm", 0, 0, {}]]]}, {"class_name": "Conv2D", "config": {"name": "Block17_6_Branch_6_Conv2d_0b_1x7", "trainable": false, "dtype": "float32", "filters": 128, "kernel_size": [1, 7], "strides": [1, 1], "padding": "same", "data_format": "channels_last", "dilation_rate": [1, 1], "activation": "linear", "use_bias": false, "kernel_initializer": {"class_name": "GlorotUniform", "config": {"seed": null}}, "bias_initializer": {"class_name": "Zeros", "config": {}}, "kernel_regularizer": null, "bias_regularizer": null, "activity_regularizer": null, "kernel_constraint": null, "bias_constraint": null}, "name": "Block17_6_Branch_6_Conv2d_0b_1x7", "inbound_nodes": [[["Block17_6_Branch_6_Conv2d_0a_1x1_Activation", 0, 0, {}]]]}, {"class_name": "BatchNormalization", "config": {"name": "Block17_6_Branch_6_Conv2d_0b_1x7_BatchNorm", "trainable": false, "dtype": "float32", "axis": [3], "momentum": 0.995, "epsilon": 0.001, "center": true, "scale": false, "beta_initializer": {"class_name": "Zeros", "config": {}}, "gamma_initializer": {"class_name": "Ones", "config": {}}, "moving_mean_initializer": {"class_name": "Zeros", "config": {}}, "moving_variance_initializer": {"class_name": "Ones", "config": {}}, "beta_regularizer": null, "gamma_regularizer": null, "beta_constraint": null, "gamma_constraint": null}, "name": "Block17_6_Branch_6_Conv2d_0b_1x7_BatchNorm", "inbound_nodes": [[["Block17_6_Branch_6_Conv2d_0b_1x7", 0, 0, {}]]]}, {"class_name": "Activation", "config": {"name": "Block17_6_Branch_6_Conv2d_0b_1x7_Activation", "trainable": false, "dtype": "float32", "activation": "relu"}, "name": "Block17_6_Branch_6_Conv2d_0b_1x7_Activation", "inbound_nodes": [[["Block17_6_Branch_6_Conv2d_0b_1x7_BatchNorm", 0, 0, {}]]]}, {"class_name": "Conv2D", "config": {"name": "Block17_6_Branch_0_Conv2d_1x1", "trainable": false, "dtype": "float32", "filters": 128, "kernel_size": [1, 1], "strides": [1, 1], "padding": "same", "data_format": "channels_last", "dilation_rate": [1, 1], "activation": "linear", "use_bias": false, "kernel_initializer": {"class_name": "GlorotUniform", "config": {"seed": null}}, "bias_initializer": {"class_name": "Zeros", "config": {}}, "kernel_regularizer": null, "bias_regularizer": null, "activity_regularizer": null, "kernel_constraint": null, "bias_constraint": null}, "name": "Block17_6_Branch_0_Conv2d_1x1", "inbound_nodes": [[["Block17_5_Activation", 0, 0, {}]]]}, {"class_name": "Conv2D", "config": {"name": "Block17_6_Branch_6_Conv2d_0c_7x1", "trainable": false, "dtype": "float32", "filters": 128, "kernel_size": [7, 1], "strides": [1, 1], "padding": "same", "data_format": "channels_last", "dilation_rate": [1, 1], "activation": "linear", "use_bias": false, "kernel_initializer": {"class_name": "GlorotUniform", "config": {"seed": null}}, "bias_initializer": {"class_name": "Zeros", "config": {}}, "kernel_regularizer": null, "bias_regularizer": null, "activity_regularizer": null, "kernel_constraint": null, "bias_constraint": null}, "name": "Block17_6_Branch_6_Conv2d_0c_7x1", "inbound_nodes": [[["Block17_6_Branch_6_Conv2d_0b_1x7_Activation", 0, 0, {}]]]}, {"class_name": "BatchNormalization", "config": {"name": "Block17_6_Branch_0_Conv2d_1x1_BatchNorm", "trainable": false, "dtype": "float32", "axis": [3], "momentum": 0.995, "epsilon": 0.001, "center": true, "scale": false, "beta_initializer": {"class_name": "Zeros", "config": {}}, "gamma_initializer": {"class_name": "Ones", "config": {}}, "moving_mean_initializer": {"class_name": "Zeros", "config": {}}, "moving_variance_initializer": {"class_name": "Ones", "config": {}}, "beta_regularizer": null, "gamma_regularizer": null, "beta_constraint": null, "gamma_constraint": null}, "name": "Block17_6_Branch_0_Conv2d_1x1_BatchNorm", "inbound_nodes": [[["Block17_6_Branch_0_Conv2d_1x1", 0, 0, {}]]]}, {"class_name": "BatchNormalization", "config": {"name": "Block17_6_Branch_6_Conv2d_0c_7x1_BatchNorm", "trainable": false, "dtype": "float32", "axis": [3], "momentum": 0.995, "epsilon": 0.001, "center": true, "scale": false, "beta_initializer": {"class_name": "Zeros", "config": {}}, "gamma_initializer": {"class_name": "Ones", "config": {}}, "moving_mean_initializer": {"class_name": "Zeros", "config": {}}, "moving_variance_initializer": {"class_name": "Ones", "config": {}}, "beta_regularizer": null, "gamma_regularizer": null, "beta_constraint": null, "gamma_constraint": null}, "name": "Block17_6_Branch_6_Conv2d_0c_7x1_BatchNorm", "inbound_nodes": [[["Block17_6_Branch_6_Conv2d_0c_7x1", 0, 0, {}]]]}, {"class_name": "Activation", "config": {"name": "Block17_6_Branch_0_Conv2d_1x1_Activation", "trainable": false, "dtype": "float32", "activation": "relu"}, "name": "Block17_6_Branch_0_Conv2d_1x1_Activation", "inbound_nodes": [[["Block17_6_Branch_0_Conv2d_1x1_BatchNorm", 0, 0, {}]]]}, {"class_name": "Activation", "config": {"name": "Block17_6_Branch_6_Conv2d_0c_7x1_Activation", "trainable": false, "dtype": "float32", "activation": "relu"}, "name": "Block17_6_Branch_6_Conv2d_0c_7x1_Activation", "inbound_nodes": [[["Block17_6_Branch_6_Conv2d_0c_7x1_BatchNorm", 0, 0, {}]]]}, {"class_name": "Concatenate", "config": {"name": "Block17_6_Concatenate", "trainable": false, "dtype": "float32", "axis": 3}, "name": "Block17_6_Concatenate", "inbound_nodes": [[["Block17_6_Branch_0_Conv2d_1x1_Activation", 0, 0, {}], ["Block17_6_Branch_6_Conv2d_0c_7x1_Activation", 0, 0, {}]]]}, {"class_name": "Conv2D", "config": {"name": "Block17_6_Conv2d_1x1", "trainable": false, "dtype": "float32", "filters": 896, "kernel_size": [1, 1], "strides": [1, 1], "padding": "same", "data_format": "channels_last", "dilation_rate": [1, 1], "activation": "linear", "use_bias": true, "kernel_initializer": {"class_name": "GlorotUniform", "config": {"seed": null}}, "bias_initializer": {"class_name": "Zeros", "config": {}}, "kernel_regularizer": null, "bias_regularizer": null, "activity_regularizer": null, "kernel_constraint": null, "bias_constraint": null}, "name": "Block17_6_Conv2d_1x1", "inbound_nodes": [[["Block17_6_Concatenate", 0, 0, {}]]]}, {"class_name": "Lambda", "config": {"name": "lambda_31", "trainable": false, "dtype": "float32", "function": ["4wIAAAAAAAAAAAAAAAIAAAACAAAAQwAAAHMIAAAAfAB8ARQAUwApAU6pACkC2gF42gVzY2FsZXIB\nAAAAcgEAAAD6DnNyYy9mYWNlbmV0LnB52gdzY2FsaW5nEAAAAHMCAAAAAAE=\n", null, null], "function_type": "lambda", "module": "__main__", "output_shape": [8, 8, 896], "output_shape_type": "raw", "output_shape_module": null, "arguments": {"scale": 0.1}}, "name": "lambda_31", "inbound_nodes": [[["Block17_6_Conv2d_1x1", 0, 0, {}]]]}, {"class_name": "Add", "config": {"name": "add_31", "trainable": false, "dtype": "float32"}, "name": "add_31", "inbound_nodes": [[["Block17_5_Activation", 0, 0, {}], ["lambda_31", 0, 0, {}]]]}, {"class_name": "Activation", "config": {"name": "Block17_6_Activation", "trainable": false, "dtype": "float32", "activation": "relu"}, "name": "Block17_6_Activation", "inbound_nodes": [[["add_31", 0, 0, {}]]]}, {"class_name": "Conv2D", "config": {"name": "Block17_7_Branch_7_Conv2d_0a_1x1", "trainable": false, "dtype": "float32", "filters": 128, "kernel_size": [1, 1], "strides": [1, 1], "padding": "same", "data_format": "channels_last", "dilation_rate": [1, 1], "activation": "linear", "use_bias": false, "kernel_initializer": {"class_name": "GlorotUniform", "config": {"seed": null}}, "bias_initializer": {"class_name": "Zeros", "config": {}}, "kernel_regularizer": null, "bias_regularizer": null, "activity_regularizer": null, "kernel_constraint": null, "bias_constraint": null}, "name": "Block17_7_Branch_7_Conv2d_0a_1x1", "inbound_nodes": [[["Block17_6_Activation", 0, 0, {}]]]}, {"class_name": "BatchNormalization", "config": {"name": "Block17_7_Branch_7_Conv2d_0a_1x1_BatchNorm", "trainable": false, "dtype": "float32", "axis": [3], "momentum": 0.995, "epsilon": 0.001, "center": true, "scale": false, "beta_initializer": {"class_name": "Zeros", "config": {}}, "gamma_initializer": {"class_name": "Ones", "config": {}}, "moving_mean_initializer": {"class_name": "Zeros", "config": {}}, "moving_variance_initializer": {"class_name": "Ones", "config": {}}, "beta_regularizer": null, "gamma_regularizer": null, "beta_constraint": null, "gamma_constraint": null}, "name": "Block17_7_Branch_7_Conv2d_0a_1x1_BatchNorm", "inbound_nodes": [[["Block17_7_Branch_7_Conv2d_0a_1x1", 0, 0, {}]]]}, {"class_name": "Activation", "config": {"name": "Block17_7_Branch_7_Conv2d_0a_1x1_Activation", "trainable": false, "dtype": "float32", "activation": "relu"}, "name": "Block17_7_Branch_7_Conv2d_0a_1x1_Activation", "inbound_nodes": [[["Block17_7_Branch_7_Conv2d_0a_1x1_BatchNorm", 0, 0, {}]]]}, {"class_name": "Conv2D", "config": {"name": "Block17_7_Branch_7_Conv2d_0b_1x7", "trainable": false, "dtype": "float32", "filters": 128, "kernel_size": [1, 7], "strides": [1, 1], "padding": "same", "data_format": "channels_last", "dilation_rate": [1, 1], "activation": "linear", "use_bias": false, "kernel_initializer": {"class_name": "GlorotUniform", "config": {"seed": null}}, "bias_initializer": {"class_name": "Zeros", "config": {}}, "kernel_regularizer": null, "bias_regularizer": null, "activity_regularizer": null, "kernel_constraint": null, "bias_constraint": null}, "name": "Block17_7_Branch_7_Conv2d_0b_1x7", "inbound_nodes": [[["Block17_7_Branch_7_Conv2d_0a_1x1_Activation", 0, 0, {}]]]}, {"class_name": "BatchNormalization", "config": {"name": "Block17_7_Branch_7_Conv2d_0b_1x7_BatchNorm", "trainable": false, "dtype": "float32", "axis": [3], "momentum": 0.995, "epsilon": 0.001, "center": true, "scale": false, "beta_initializer": {"class_name": "Zeros", "config": {}}, "gamma_initializer": {"class_name": "Ones", "config": {}}, "moving_mean_initializer": {"class_name": "Zeros", "config": {}}, "moving_variance_initializer": {"class_name": "Ones", "config": {}}, "beta_regularizer": null, "gamma_regularizer": null, "beta_constraint": null, "gamma_constraint": null}, "name": "Block17_7_Branch_7_Conv2d_0b_1x7_BatchNorm", "inbound_nodes": [[["Block17_7_Branch_7_Conv2d_0b_1x7", 0, 0, {}]]]}, {"class_name": "Activation", "config": {"name": "Block17_7_Branch_7_Conv2d_0b_1x7_Activation", "trainable": false, "dtype": "float32", "activation": "relu"}, "name": "Block17_7_Branch_7_Conv2d_0b_1x7_Activation", "inbound_nodes": [[["Block17_7_Branch_7_Conv2d_0b_1x7_BatchNorm", 0, 0, {}]]]}, {"class_name": "Conv2D", "config": {"name": "Block17_7_Branch_0_Conv2d_1x1", "trainable": false, "dtype": "float32", "filters": 128, "kernel_size": [1, 1], "strides": [1, 1], "padding": "same", "data_format": "channels_last", "dilation_rate": [1, 1], "activation": "linear", "use_bias": false, "kernel_initializer": {"class_name": "GlorotUniform", "config": {"seed": null}}, "bias_initializer": {"class_name": "Zeros", "config": {}}, "kernel_regularizer": null, "bias_regularizer": null, "activity_regularizer": null, "kernel_constraint": null, "bias_constraint": null}, "name": "Block17_7_Branch_0_Conv2d_1x1", "inbound_nodes": [[["Block17_6_Activation", 0, 0, {}]]]}, {"class_name": "Conv2D", "config": {"name": "Block17_7_Branch_7_Conv2d_0c_7x1", "trainable": false, "dtype": "float32", "filters": 128, "kernel_size": [7, 1], "strides": [1, 1], "padding": "same", "data_format": "channels_last", "dilation_rate": [1, 1], "activation": "linear", "use_bias": false, "kernel_initializer": {"class_name": "GlorotUniform", "config": {"seed": null}}, "bias_initializer": {"class_name": "Zeros", "config": {}}, "kernel_regularizer": null, "bias_regularizer": null, "activity_regularizer": null, "kernel_constraint": null, "bias_constraint": null}, "name": "Block17_7_Branch_7_Conv2d_0c_7x1", "inbound_nodes": [[["Block17_7_Branch_7_Conv2d_0b_1x7_Activation", 0, 0, {}]]]}, {"class_name": "BatchNormalization", "config": {"name": "Block17_7_Branch_0_Conv2d_1x1_BatchNorm", "trainable": false, "dtype": "float32", "axis": [3], "momentum": 0.995, "epsilon": 0.001, "center": true, "scale": false, "beta_initializer": {"class_name": "Zeros", "config": {}}, "gamma_initializer": {"class_name": "Ones", "config": {}}, "moving_mean_initializer": {"class_name": "Zeros", "config": {}}, "moving_variance_initializer": {"class_name": "Ones", "config": {}}, "beta_regularizer": null, "gamma_regularizer": null, "beta_constraint": null, "gamma_constraint": null}, "name": "Block17_7_Branch_0_Conv2d_1x1_BatchNorm", "inbound_nodes": [[["Block17_7_Branch_0_Conv2d_1x1", 0, 0, {}]]]}, {"class_name": "BatchNormalization", "config": {"name": "Block17_7_Branch_7_Conv2d_0c_7x1_BatchNorm", "trainable": false, "dtype": "float32", "axis": [3], "momentum": 0.995, "epsilon": 0.001, "center": true, "scale": false, "beta_initializer": {"class_name": "Zeros", "config": {}}, "gamma_initializer": {"class_name": "Ones", "config": {}}, "moving_mean_initializer": {"class_name": "Zeros", "config": {}}, "moving_variance_initializer": {"class_name": "Ones", "config": {}}, "beta_regularizer": null, "gamma_regularizer": null, "beta_constraint": null, "gamma_constraint": null}, "name": "Block17_7_Branch_7_Conv2d_0c_7x1_BatchNorm", "inbound_nodes": [[["Block17_7_Branch_7_Conv2d_0c_7x1", 0, 0, {}]]]}, {"class_name": "Activation", "config": {"name": "Block17_7_Branch_0_Conv2d_1x1_Activation", "trainable": false, "dtype": "float32", "activation": "relu"}, "name": "Block17_7_Branch_0_Conv2d_1x1_Activation", "inbound_nodes": [[["Block17_7_Branch_0_Conv2d_1x1_BatchNorm", 0, 0, {}]]]}, {"class_name": "Activation", "config": {"name": "Block17_7_Branch_7_Conv2d_0c_7x1_Activation", "trainable": false, "dtype": "float32", "activation": "relu"}, "name": "Block17_7_Branch_7_Conv2d_0c_7x1_Activation", "inbound_nodes": [[["Block17_7_Branch_7_Conv2d_0c_7x1_BatchNorm", 0, 0, {}]]]}, {"class_name": "Concatenate", "config": {"name": "Block17_7_Concatenate", "trainable": false, "dtype": "float32", "axis": 3}, "name": "Block17_7_Concatenate", "inbound_nodes": [[["Block17_7_Branch_0_Conv2d_1x1_Activation", 0, 0, {}], ["Block17_7_Branch_7_Conv2d_0c_7x1_Activation", 0, 0, {}]]]}, {"class_name": "Conv2D", "config": {"name": "Block17_7_Conv2d_1x1", "trainable": false, "dtype": "float32", "filters": 896, "kernel_size": [1, 1], "strides": [1, 1], "padding": "same", "data_format": "channels_last", "dilation_rate": [1, 1], "activation": "linear", "use_bias": true, "kernel_initializer": {"class_name": "GlorotUniform", "config": {"seed": null}}, "bias_initializer": {"class_name": "Zeros", "config": {}}, "kernel_regularizer": null, "bias_regularizer": null, "activity_regularizer": null, "kernel_constraint": null, "bias_constraint": null}, "name": "Block17_7_Conv2d_1x1", "inbound_nodes": [[["Block17_7_Concatenate", 0, 0, {}]]]}, {"class_name": "Lambda", "config": {"name": "lambda_32", "trainable": false, "dtype": "float32", "function": ["4wIAAAAAAAAAAAAAAAIAAAACAAAAQwAAAHMIAAAAfAB8ARQAUwApAU6pACkC2gF42gVzY2FsZXIB\nAAAAcgEAAAD6DnNyYy9mYWNlbmV0LnB52gdzY2FsaW5nEAAAAHMCAAAAAAE=\n", null, null], "function_type": "lambda", "module": "__main__", "output_shape": [8, 8, 896], "output_shape_type": "raw", "output_shape_module": null, "arguments": {"scale": 0.1}}, "name": "lambda_32", "inbound_nodes": [[["Block17_7_Conv2d_1x1", 0, 0, {}]]]}, {"class_name": "Add", "config": {"name": "add_32", "trainable": false, "dtype": "float32"}, "name": "add_32", "inbound_nodes": [[["Block17_6_Activation", 0, 0, {}], ["lambda_32", 0, 0, {}]]]}, {"class_name": "Activation", "config": {"name": "Block17_7_Activation", "trainable": false, "dtype": "float32", "activation": "relu"}, "name": "Block17_7_Activation", "inbound_nodes": [[["add_32", 0, 0, {}]]]}, {"class_name": "Conv2D", "config": {"name": "Block17_8_Branch_8_Conv2d_0a_1x1", "trainable": false, "dtype": "float32", "filters": 128, "kernel_size": [1, 1], "strides": [1, 1], "padding": "same", "data_format": "channels_last", "dilation_rate": [1, 1], "activation": "linear", "use_bias": false, "kernel_initializer": {"class_name": "GlorotUniform", "config": {"seed": null}}, "bias_initializer": {"class_name": "Zeros", "config": {}}, "kernel_regularizer": null, "bias_regularizer": null, "activity_regularizer": null, "kernel_constraint": null, "bias_constraint": null}, "name": "Block17_8_Branch_8_Conv2d_0a_1x1", "inbound_nodes": [[["Block17_7_Activation", 0, 0, {}]]]}, {"class_name": "BatchNormalization", "config": {"name": "Block17_8_Branch_8_Conv2d_0a_1x1_BatchNorm", "trainable": false, "dtype": "float32", "axis": [3], "momentum": 0.995, "epsilon": 0.001, "center": true, "scale": false, "beta_initializer": {"class_name": "Zeros", "config": {}}, "gamma_initializer": {"class_name": "Ones", "config": {}}, "moving_mean_initializer": {"class_name": "Zeros", "config": {}}, "moving_variance_initializer": {"class_name": "Ones", "config": {}}, "beta_regularizer": null, "gamma_regularizer": null, "beta_constraint": null, "gamma_constraint": null}, "name": "Block17_8_Branch_8_Conv2d_0a_1x1_BatchNorm", "inbound_nodes": [[["Block17_8_Branch_8_Conv2d_0a_1x1", 0, 0, {}]]]}, {"class_name": "Activation", "config": {"name": "Block17_8_Branch_8_Conv2d_0a_1x1_Activation", "trainable": false, "dtype": "float32", "activation": "relu"}, "name": "Block17_8_Branch_8_Conv2d_0a_1x1_Activation", "inbound_nodes": [[["Block17_8_Branch_8_Conv2d_0a_1x1_BatchNorm", 0, 0, {}]]]}, {"class_name": "Conv2D", "config": {"name": "Block17_8_Branch_8_Conv2d_0b_1x7", "trainable": false, "dtype": "float32", "filters": 128, "kernel_size": [1, 7], "strides": [1, 1], "padding": "same", "data_format": "channels_last", "dilation_rate": [1, 1], "activation": "linear", "use_bias": false, "kernel_initializer": {"class_name": "GlorotUniform", "config": {"seed": null}}, "bias_initializer": {"class_name": "Zeros", "config": {}}, "kernel_regularizer": null, "bias_regularizer": null, "activity_regularizer": null, "kernel_constraint": null, "bias_constraint": null}, "name": "Block17_8_Branch_8_Conv2d_0b_1x7", "inbound_nodes": [[["Block17_8_Branch_8_Conv2d_0a_1x1_Activation", 0, 0, {}]]]}, {"class_name": "BatchNormalization", "config": {"name": "Block17_8_Branch_8_Conv2d_0b_1x7_BatchNorm", "trainable": false, "dtype": "float32", "axis": [3], "momentum": 0.995, "epsilon": 0.001, "center": true, "scale": false, "beta_initializer": {"class_name": "Zeros", "config": {}}, "gamma_initializer": {"class_name": "Ones", "config": {}}, "moving_mean_initializer": {"class_name": "Zeros", "config": {}}, "moving_variance_initializer": {"class_name": "Ones", "config": {}}, "beta_regularizer": null, "gamma_regularizer": null, "beta_constraint": null, "gamma_constraint": null}, "name": "Block17_8_Branch_8_Conv2d_0b_1x7_BatchNorm", "inbound_nodes": [[["Block17_8_Branch_8_Conv2d_0b_1x7", 0, 0, {}]]]}, {"class_name": "Activation", "config": {"name": "Block17_8_Branch_8_Conv2d_0b_1x7_Activation", "trainable": false, "dtype": "float32", "activation": "relu"}, "name": "Block17_8_Branch_8_Conv2d_0b_1x7_Activation", "inbound_nodes": [[["Block17_8_Branch_8_Conv2d_0b_1x7_BatchNorm", 0, 0, {}]]]}, {"class_name": "Conv2D", "config": {"name": "Block17_8_Branch_0_Conv2d_1x1", "trainable": false, "dtype": "float32", "filters": 128, "kernel_size": [1, 1], "strides": [1, 1], "padding": "same", "data_format": "channels_last", "dilation_rate": [1, 1], "activation": "linear", "use_bias": false, "kernel_initializer": {"class_name": "GlorotUniform", "config": {"seed": null}}, "bias_initializer": {"class_name": "Zeros", "config": {}}, "kernel_regularizer": null, "bias_regularizer": null, "activity_regularizer": null, "kernel_constraint": null, "bias_constraint": null}, "name": "Block17_8_Branch_0_Conv2d_1x1", "inbound_nodes": [[["Block17_7_Activation", 0, 0, {}]]]}, {"class_name": "Conv2D", "config": {"name": "Block17_8_Branch_8_Conv2d_0c_7x1", "trainable": false, "dtype": "float32", "filters": 128, "kernel_size": [7, 1], "strides": [1, 1], "padding": "same", "data_format": "channels_last", "dilation_rate": [1, 1], "activation": "linear", "use_bias": false, "kernel_initializer": {"class_name": "GlorotUniform", "config": {"seed": null}}, "bias_initializer": {"class_name": "Zeros", "config": {}}, "kernel_regularizer": null, "bias_regularizer": null, "activity_regularizer": null, "kernel_constraint": null, "bias_constraint": null}, "name": "Block17_8_Branch_8_Conv2d_0c_7x1", "inbound_nodes": [[["Block17_8_Branch_8_Conv2d_0b_1x7_Activation", 0, 0, {}]]]}, {"class_name": "BatchNormalization", "config": {"name": "Block17_8_Branch_0_Conv2d_1x1_BatchNorm", "trainable": false, "dtype": "float32", "axis": [3], "momentum": 0.995, "epsilon": 0.001, "center": true, "scale": false, "beta_initializer": {"class_name": "Zeros", "config": {}}, "gamma_initializer": {"class_name": "Ones", "config": {}}, "moving_mean_initializer": {"class_name": "Zeros", "config": {}}, "moving_variance_initializer": {"class_name": "Ones", "config": {}}, "beta_regularizer": null, "gamma_regularizer": null, "beta_constraint": null, "gamma_constraint": null}, "name": "Block17_8_Branch_0_Conv2d_1x1_BatchNorm", "inbound_nodes": [[["Block17_8_Branch_0_Conv2d_1x1", 0, 0, {}]]]}, {"class_name": "BatchNormalization", "config": {"name": "Block17_8_Branch_8_Conv2d_0c_7x1_BatchNorm", "trainable": false, "dtype": "float32", "axis": [3], "momentum": 0.995, "epsilon": 0.001, "center": true, "scale": false, "beta_initializer": {"class_name": "Zeros", "config": {}}, "gamma_initializer": {"class_name": "Ones", "config": {}}, "moving_mean_initializer": {"class_name": "Zeros", "config": {}}, "moving_variance_initializer": {"class_name": "Ones", "config": {}}, "beta_regularizer": null, "gamma_regularizer": null, "beta_constraint": null, "gamma_constraint": null}, "name": "Block17_8_Branch_8_Conv2d_0c_7x1_BatchNorm", "inbound_nodes": [[["Block17_8_Branch_8_Conv2d_0c_7x1", 0, 0, {}]]]}, {"class_name": "Activation", "config": {"name": "Block17_8_Branch_0_Conv2d_1x1_Activation", "trainable": false, "dtype": "float32", "activation": "relu"}, "name": "Block17_8_Branch_0_Conv2d_1x1_Activation", "inbound_nodes": [[["Block17_8_Branch_0_Conv2d_1x1_BatchNorm", 0, 0, {}]]]}, {"class_name": "Activation", "config": {"name": "Block17_8_Branch_8_Conv2d_0c_7x1_Activation", "trainable": false, "dtype": "float32", "activation": "relu"}, "name": "Block17_8_Branch_8_Conv2d_0c_7x1_Activation", "inbound_nodes": [[["Block17_8_Branch_8_Conv2d_0c_7x1_BatchNorm", 0, 0, {}]]]}, {"class_name": "Concatenate", "config": {"name": "Block17_8_Concatenate", "trainable": false, "dtype": "float32", "axis": 3}, "name": "Block17_8_Concatenate", "inbound_nodes": [[["Block17_8_Branch_0_Conv2d_1x1_Activation", 0, 0, {}], ["Block17_8_Branch_8_Conv2d_0c_7x1_Activation", 0, 0, {}]]]}, {"class_name": "Conv2D", "config": {"name": "Block17_8_Conv2d_1x1", "trainable": false, "dtype": "float32", "filters": 896, "kernel_size": [1, 1], "strides": [1, 1], "padding": "same", "data_format": "channels_last", "dilation_rate": [1, 1], "activation": "linear", "use_bias": true, "kernel_initializer": {"class_name": "GlorotUniform", "config": {"seed": null}}, "bias_initializer": {"class_name": "Zeros", "config": {}}, "kernel_regularizer": null, "bias_regularizer": null, "activity_regularizer": null, "kernel_constraint": null, "bias_constraint": null}, "name": "Block17_8_Conv2d_1x1", "inbound_nodes": [[["Block17_8_Concatenate", 0, 0, {}]]]}, {"class_name": "Lambda", "config": {"name": "lambda_33", "trainable": false, "dtype": "float32", "function": ["4wIAAAAAAAAAAAAAAAIAAAACAAAAQwAAAHMIAAAAfAB8ARQAUwApAU6pACkC2gF42gVzY2FsZXIB\nAAAAcgEAAAD6DnNyYy9mYWNlbmV0LnB52gdzY2FsaW5nEAAAAHMCAAAAAAE=\n", null, null], "function_type": "lambda", "module": "__main__", "output_shape": [8, 8, 896], "output_shape_type": "raw", "output_shape_module": null, "arguments": {"scale": 0.1}}, "name": "lambda_33", "inbound_nodes": [[["Block17_8_Conv2d_1x1", 0, 0, {}]]]}, {"class_name": "Add", "config": {"name": "add_33", "trainable": false, "dtype": "float32"}, "name": "add_33", "inbound_nodes": [[["Block17_7_Activation", 0, 0, {}], ["lambda_33", 0, 0, {}]]]}, {"class_name": "Activation", "config": {"name": "Block17_8_Activation", "trainable": false, "dtype": "float32", "activation": "relu"}, "name": "Block17_8_Activation", "inbound_nodes": [[["add_33", 0, 0, {}]]]}, {"class_name": "Conv2D", "config": {"name": "Block17_9_Branch_9_Conv2d_0a_1x1", "trainable": false, "dtype": "float32", "filters": 128, "kernel_size": [1, 1], "strides": [1, 1], "padding": "same", "data_format": "channels_last", "dilation_rate": [1, 1], "activation": "linear", "use_bias": false, "kernel_initializer": {"class_name": "GlorotUniform", "config": {"seed": null}}, "bias_initializer": {"class_name": "Zeros", "config": {}}, "kernel_regularizer": null, "bias_regularizer": null, "activity_regularizer": null, "kernel_constraint": null, "bias_constraint": null}, "name": "Block17_9_Branch_9_Conv2d_0a_1x1", "inbound_nodes": [[["Block17_8_Activation", 0, 0, {}]]]}, {"class_name": "BatchNormalization", "config": {"name": "Block17_9_Branch_9_Conv2d_0a_1x1_BatchNorm", "trainable": false, "dtype": "float32", "axis": [3], "momentum": 0.995, "epsilon": 0.001, "center": true, "scale": false, "beta_initializer": {"class_name": "Zeros", "config": {}}, "gamma_initializer": {"class_name": "Ones", "config": {}}, "moving_mean_initializer": {"class_name": "Zeros", "config": {}}, "moving_variance_initializer": {"class_name": "Ones", "config": {}}, "beta_regularizer": null, "gamma_regularizer": null, "beta_constraint": null, "gamma_constraint": null}, "name": "Block17_9_Branch_9_Conv2d_0a_1x1_BatchNorm", "inbound_nodes": [[["Block17_9_Branch_9_Conv2d_0a_1x1", 0, 0, {}]]]}, {"class_name": "Activation", "config": {"name": "Block17_9_Branch_9_Conv2d_0a_1x1_Activation", "trainable": false, "dtype": "float32", "activation": "relu"}, "name": "Block17_9_Branch_9_Conv2d_0a_1x1_Activation", "inbound_nodes": [[["Block17_9_Branch_9_Conv2d_0a_1x1_BatchNorm", 0, 0, {}]]]}, {"class_name": "Conv2D", "config": {"name": "Block17_9_Branch_9_Conv2d_0b_1x7", "trainable": false, "dtype": "float32", "filters": 128, "kernel_size": [1, 7], "strides": [1, 1], "padding": "same", "data_format": "channels_last", "dilation_rate": [1, 1], "activation": "linear", "use_bias": false, "kernel_initializer": {"class_name": "GlorotUniform", "config": {"seed": null}}, "bias_initializer": {"class_name": "Zeros", "config": {}}, "kernel_regularizer": null, "bias_regularizer": null, "activity_regularizer": null, "kernel_constraint": null, "bias_constraint": null}, "name": "Block17_9_Branch_9_Conv2d_0b_1x7", "inbound_nodes": [[["Block17_9_Branch_9_Conv2d_0a_1x1_Activation", 0, 0, {}]]]}, {"class_name": "BatchNormalization", "config": {"name": "Block17_9_Branch_9_Conv2d_0b_1x7_BatchNorm", "trainable": false, "dtype": "float32", "axis": [3], "momentum": 0.995, "epsilon": 0.001, "center": true, "scale": false, "beta_initializer": {"class_name": "Zeros", "config": {}}, "gamma_initializer": {"class_name": "Ones", "config": {}}, "moving_mean_initializer": {"class_name": "Zeros", "config": {}}, "moving_variance_initializer": {"class_name": "Ones", "config": {}}, "beta_regularizer": null, "gamma_regularizer": null, "beta_constraint": null, "gamma_constraint": null}, "name": "Block17_9_Branch_9_Conv2d_0b_1x7_BatchNorm", "inbound_nodes": [[["Block17_9_Branch_9_Conv2d_0b_1x7", 0, 0, {}]]]}, {"class_name": "Activation", "config": {"name": "Block17_9_Branch_9_Conv2d_0b_1x7_Activation", "trainable": false, "dtype": "float32", "activation": "relu"}, "name": "Block17_9_Branch_9_Conv2d_0b_1x7_Activation", "inbound_nodes": [[["Block17_9_Branch_9_Conv2d_0b_1x7_BatchNorm", 0, 0, {}]]]}, {"class_name": "Conv2D", "config": {"name": "Block17_9_Branch_0_Conv2d_1x1", "trainable": false, "dtype": "float32", "filters": 128, "kernel_size": [1, 1], "strides": [1, 1], "padding": "same", "data_format": "channels_last", "dilation_rate": [1, 1], "activation": "linear", "use_bias": false, "kernel_initializer": {"class_name": "GlorotUniform", "config": {"seed": null}}, "bias_initializer": {"class_name": "Zeros", "config": {}}, "kernel_regularizer": null, "bias_regularizer": null, "activity_regularizer": null, "kernel_constraint": null, "bias_constraint": null}, "name": "Block17_9_Bra…
ch_2_Conv2d_0b_1x3_Activation", "trainable": false, "dtype": "float32", "activation": "relu"}, "name": "Block8_2_Branch_2_Conv2d_0b_1x3_Activation", "inbound_nodes": [[["Block8_2_Branch_2_Conv2d_0b_1x3_BatchNorm", 0, 0, {}]]]}, {"class_name": "Conv2D", "config": {"name": "Block8_2_Branch_0_Conv2d_1x1", "trainable": false, "dtype": "float32", "filters": 192, "kernel_size": [1, 1], "strides": [1, 1], "padding": "same", "data_format": "channels_last", "dilation_rate": [1, 1], "activation": "linear", "use_bias": false, "kernel_initializer": {"class_name": "GlorotUniform", "config": {"seed": null}}, "bias_initializer": {"class_name": "Zeros", "config": {}}, "kernel_regularizer": null, "bias_regularizer": null, "activity_regularizer": null, "kernel_constraint": null, "bias_constraint": null}, "name": "Block8_2_Branch_0_Conv2d_1x1", "inbound_nodes": [[["Block8_1_Activation", 0, 0, {}]]]}, {"class_name": "Conv2D", "config": {"name": "Block8_2_Branch_2_Conv2d_0c_3x1", "trainable": false, "dtype": "float32", "filters": 192, "kernel_size": [3, 1], "strides": [1, 1], "padding": "same", "data_format": "channels_last", "dilation_rate": [1, 1], "activation": "linear", "use_bias": false, "kernel_initializer": {"class_name": "GlorotUniform", "config": {"seed": null}}, "bias_initializer": {"class_name": "Zeros", "config": {}}, "kernel_regularizer": null, "bias_regularizer": null, "activity_regularizer": null, "kernel_constraint": null, "bias_constraint": null}, "name": "Block8_2_Branch_2_Conv2d_0c_3x1", "inbound_nodes": [[["Block8_2_Branch_2_Conv2d_0b_1x3_Activation", 0, 0, {}]]]}, {"class_name": "BatchNormalization", "config": {"name": "Block8_2_Branch_0_Conv2d_1x1_BatchNorm", "trainable": false, "dtype": "float32", "axis": [3], "momentum": 0.995, "epsilon": 0.001, "center": true, "scale": false, "beta_initializer": {"class_name": "Zeros", "config": {}}, "gamma_initializer": {"class_name": "Ones", "config": {}}, "moving_mean_initializer": {"class_name": "Zeros", "config": {}}, "moving_variance_initializer": {"class_name": "Ones", "config": {}}, "beta_regularizer": null, "gamma_regularizer": null, "beta_constraint": null, "gamma_constraint": null}, "name": "Block8_2_Branch_0_Conv2d_1x1_BatchNorm", "inbound_nodes": [[["Block8_2_Branch_0_Conv2d_1x1", 0, 0, {}]]]}, {"class_name": "BatchNormalization", "config": {"name": "Block8_2_Branch_2_Conv2d_0c_3x1_BatchNorm", "trainable": false, "dtype": "float32", "axis": [3], "momentum": 0.995, "epsilon": 0.001, "center": true, "scale": false, "beta_initializer": {"class_name": "Zeros", "config": {}}, "gamma_initializer": {"class_name": "Ones", "config": {}}, "moving_mean_initializer": {"class_name": "Zeros", "config": {}}, "moving_variance_initializer": {"class_name": "Ones", "config": {}}, "beta_regularizer": null, "gamma_regularizer": null, "beta_constraint": null, "gamma_constraint": null}, "name": "Block8_2_Branch_2_Conv2d_0c_3x1_BatchNorm", "inbound_nodes": [[["Block8_2_Branch_2_Conv2d_0c_3x1", 0, 0, {}]]]}, {"class_name": "Activation", "config": {"name": "Block8_2_Branch_0_Conv2d_1x1_Activation", "trainable": false, "dtype": "float32", "activation": "relu"}, "name": "Block8_2_Branch_0_Conv2d_1x1_Activation", "inbound_nodes": [[["Block8_2_Branch_0_Conv2d_1x1_BatchNorm", 0, 0, {}]]]}, {"class_name": "Activation", "config": {"name": "Block8_2_Branch_2_Conv2d_0c_3x1_Activation", "trainable": false, "dtype": "float32", "activation": "relu"}, "name": "Block8_2_Branch_2_Conv2d_0c_3x1_Activation", "inbound_nodes": [[["Block8_2_Branch_2_Conv2d_0c_3x1_BatchNorm", 0, 0, {}]]]}, {"class_name": "Concatenate", "config": {"name": "Block8_2_Concatenate", "trainable": false, "dtype": "float32", "axis": 3}, "name": "Block8_2_Concatenate", "inbound_nodes": [[["Block8_2_Branch_0_Conv2d_1x1_Activation", 0, 0, {}], ["Block8_2_Branch_2_Conv2d_0c_3x1_Activation", 0, 0, {}]]]}, {"class_name": "Conv2D", "config": {"name": "Block8_2_Conv2d_1x1", "trainable": false, "dtype": "float32", "filters": 1792, "kernel_size": [1, 1], "strides": [1, 1], "padding": "same", "data_format": "channels_last", "dilation_rate": [1, 1], "activation": "linear", "use_bias": true, "kernel_initializer": {"class_name": "GlorotUniform", "config": {"seed": null}}, "bias_initializer": {"class_name": "Zeros", "config": {}}, "kernel_regularizer": null, "bias_regularizer": null, "activity_regularizer": null, "kernel_constraint": null, "bias_constraint": null}, "name": "Block8_2_Conv2d_1x1", "inbound_nodes": [[["Block8_2_Concatenate", 0, 0, {}]]]}, {"class_name": "Lambda", "config": {"name": "lambda_37", "trainable": false, "dtype": "float32", "function": ["4wIAAAAAAAAAAAAAAAIAAAACAAAAQwAAAHMIAAAAfAB8ARQAUwApAU6pACkC2gF42gVzY2FsZXIB\nAAAAcgEAAAD6DnNyYy9mYWNlbmV0LnB52gdzY2FsaW5nEAAAAHMCAAAAAAE=\n", null, null], "function_type": "lambda", "module": "__main__", "output_shape": [3, 3, 1792], "output_shape_type": "raw", "output_shape_module": null, "arguments": {"scale": 0.2}}, "name": "lambda_37", "inbound_nodes": [[["Block8_2_Conv2d_1x1", 0, 0, {}]]]}, {"class_name": "Add", "config": {"name": "add_37", "trainable": false, "dtype": "float32"}, "name": "add_37", "inbound_nodes": [[["Block8_1_Activation", 0, 0, {}], ["lambda_37", 0, 0, {}]]]}, {"class_name": "Activation", "config": {"name": "Block8_2_Activation", "trainable": false, "dtype": "float32", "activation": "relu"}, "name": "Block8_2_Activation", "inbound_nodes": [[["add_37", 0, 0, {}]]]}, {"class_name": "Conv2D", "config": {"name": "Block8_3_Branch_3_Conv2d_0a_1x1", "trainable": false, "dtype": "float32", "filters": 192, "kernel_size": [1, 1], "strides": [1, 1], "padding": "same", "data_format": "channels_last", "dilation_rate": [1, 1], "activation": "linear", "use_bias": false, "kernel_initializer": {"class_name": "GlorotUniform", "config": {"seed": null}}, "bias_initializer": {"class_name": "Zeros", "config": {}}, "kernel_regularizer": null, "bias_regularizer": null, "activity_regularizer": null, "kernel_constraint": null, "bias_constraint": null}, "name": "Block8_3_Branch_3_Conv2d_0a_1x1", "inbound_nodes": [[["Block8_2_Activation", 0, 0, {}]]]}, {"class_name": "BatchNormalization", "config": {"name": "Block8_3_Branch_3_Conv2d_0a_1x1_BatchNorm", "trainable": false, "dtype": "float32", "axis": [3], "momentum": 0.995, "epsilon": 0.001, "center": true, "scale": false, "beta_initializer": {"class_name": "Zeros", "config": {}}, "gamma_initializer": {"class_name": "Ones", "config": {}}, "moving_mean_initializer": {"class_name": "Zeros", "config": {}}, "moving_variance_initializer": {"class_name": "Ones", "config": {}}, "beta_regularizer": null, "gamma_regularizer": null, "beta_constraint": null, "gamma_constraint": null}, "name": "Block8_3_Branch_3_Conv2d_0a_1x1_BatchNorm", "inbound_nodes": [[["Block8_3_Branch_3_Conv2d_0a_1x1", 0, 0, {}]]]}, {"class_name": "Activation", "config": {"name": "Block8_3_Branch_3_Conv2d_0a_1x1_Activation", "trainable": false, "dtype": "float32", "activation": "relu"}, "name": "Block8_3_Branch_3_Conv2d_0a_1x1_Activation", "inbound_nodes": [[["Block8_3_Branch_3_Conv2d_0a_1x1_BatchNorm", 0, 0, {}]]]}, {"class_name": "Conv2D", "config": {"name": "Block8_3_Branch_3_Conv2d_0b_1x3", "trainable": false, "dtype": "float32", "filters": 192, "kernel_size": [1, 3], "strides": [1, 1], "padding": "same", "data_format": "channels_last", "dilation_rate": [1, 1], "activation": "linear", "use_bias": false, "kernel_initializer": {"class_name": "GlorotUniform", "config": {"seed": null}}, "bias_initializer": {"class_name": "Zeros", "config": {}}, "kernel_regularizer": null, "bias_regularizer": null, "activity_regularizer": null, "kernel_constraint": null, "bias_constraint": null}, "name": "Block8_3_Branch_3_Conv2d_0b_1x3", "inbound_nodes": [[["Block8_3_Branch_3_Conv2d_0a_1x1_Activation", 0, 0, {}]]]}, {"class_name": "BatchNormalization", "config": {"name": "Block8_3_Branch_3_Conv2d_0b_1x3_BatchNorm", "trainable": false, "dtype": "float32", "axis": [3], "momentum": 0.995, "epsilon": 0.001, "center": true, "scale": false, "beta_initializer": {"class_name": "Zeros", "config": {}}, "gamma_initializer": {"class_name": "Ones", "config": {}}, "moving_mean_initializer": {"class_name": "Zeros", "config": {}}, "moving_variance_initializer": {"class_name": "Ones", "config": {}}, "beta_regularizer": null, "gamma_regularizer": null, "beta_constraint": null, "gamma_constraint": null}, "name": "Block8_3_Branch_3_Conv2d_0b_1x3_BatchNorm", "inbound_nodes": [[["Block8_3_Branch_3_Conv2d_0b_1x3", 0, 0, {}]]]}, {"class_name": "Activation", "config": {"name": "Block8_3_Branch_3_Conv2d_0b_1x3_Activation", "trainable": false, "dtype": "float32", "activation": "relu"}, "name": "Block8_3_Branch_3_Conv2d_0b_1x3_Activation", "inbound_nodes": [[["Block8_3_Branch_3_Conv2d_0b_1x3_BatchNorm", 0, 0, {}]]]}, {"class_name": "Conv2D", "config": {"name": "Block8_3_Branch_0_Conv2d_1x1", "trainable": false, "dtype": "float32", "filters": 192, "kernel_size": [1, 1], "strides": [1, 1], "padding": "same", "data_format": "channels_last", "dilation_rate": [1, 1], "activation": "linear", "use_bias": false, "kernel_initializer": {"class_name": "GlorotUniform", "config": {"seed": null}}, "bias_initializer": {"class_name": "Zeros", "config": {}}, "kernel_regularizer": null, "bias_regularizer": null, "activity_regularizer": null, "kernel_constraint": null, "bias_constraint": null}, "name": "Block8_3_Branch_0_Conv2d_1x1", "inbound_nodes": [[["Block8_2_Activation", 0, 0, {}]]]}, {"class_name": "Conv2D", "config": {"name": "Block8_3_Branch_3_Conv2d_0c_3x1", "trainable": false, "dtype": "float32", "filters": 192, "kernel_size": [3, 1], "strides": [1, 1], "padding": "same", "data_format": "channels_last", "dilation_rate": [1, 1], "activation": "linear", "use_bias": false, "kernel_initializer": {"class_name": "GlorotUniform", "config": {"seed": null}}, "bias_initializer": {"class_name": "Zeros", "config": {}}, "kernel_regularizer": null, "bias_regularizer": null, "activity_regularizer": null, "kernel_constraint": null, "bias_constraint": null}, "name": "Block8_3_Branch_3_Conv2d_0c_3x1", "inbound_nodes": [[["Block8_3_Branch_3_Conv2d_0b_1x3_Activation", 0, 0, {}]]]}, {"class_name": "BatchNormalization", "config": {"name": "Block8_3_Branch_0_Conv2d_1x1_BatchNorm", "trainable": false, "dtype": "float32", "axis": [3], "momentum": 0.995, "epsilon": 0.001, "center": true, "scale": false, "beta_initializer": {"class_name": "Zeros", "config": {}}, "gamma_initializer": {"class_name": "Ones", "config": {}}, "moving_mean_initializer": {"class_name": "Zeros", "config": {}}, "moving_variance_initializer": {"class_name": "Ones", "config": {}}, "beta_regularizer": null, "gamma_regularizer": null, "beta_constraint": null, "gamma_constraint": null}, "name": "Block8_3_Branch_0_Conv2d_1x1_BatchNorm", "inbound_nodes": [[["Block8_3_Branch_0_Conv2d_1x1", 0, 0, {}]]]}, {"class_name": "BatchNormalization", "config": {"name": "Block8_3_Branch_3_Conv2d_0c_3x1_BatchNorm", "trainable": false, "dtype": "float32", "axis": [3], "momentum": 0.995, "epsilon": 0.001, "center": true, "scale": false, "beta_initializer": {"class_name": "Zeros", "config": {}}, "gamma_initializer": {"class_name": "Ones", "config": {}}, "moving_mean_initializer": {"class_name": "Zeros", "config": {}}, "moving_variance_initializer": {"class_name": "Ones", "config": {}}, "beta_regularizer": null, "gamma_regularizer": null, "beta_constraint": null, "gamma_constraint": null}, "name": "Block8_3_Branch_3_Conv2d_0c_3x1_BatchNorm", "inbound_nodes": [[["Block8_3_Branch_3_Conv2d_0c_3x1", 0, 0, {}]]]}, {"class_name": "Activation", "config": {"name": "Block8_3_Branch_0_Conv2d_1x1_Activation", "trainable": false, "dtype": "float32", "activation": "relu"}, "name": "Block8_3_Branch_0_Conv2d_1x1_Activation", "inbound_nodes": [[["Block8_3_Branch_0_Conv2d_1x1_BatchNorm", 0, 0, {}]]]}, {"class_name": "Activation", "config": {"name": "Block8_3_Branch_3_Conv2d_0c_3x1_Activation", "trainable": false, "dtype": "float32", "activation": "relu"}, "name": "Block8_3_Branch_3_Conv2d_0c_3x1_Activation", "inbound_nodes": [[["Block8_3_Branch_3_Conv2d_0c_3x1_BatchNorm", 0, 0, {}]]]}, {"class_name": "Concatenate", "config": {"name": "Block8_3_Concatenate", "trainable": false, "dtype": "float32", "axis": 3}, "name": "Block8_3_Concatenate", "inbound_nodes": [[["Block8_3_Branch_0_Conv2d_1x1_Activation", 0, 0, {}], ["Block8_3_Branch_3_Conv2d_0c_3x1_Activation", 0, 0, {}]]]}, {"class_name": "Conv2D", "config": {"name": "Block8_3_Conv2d_1x1", "trainable": false, "dtype": "float32", "filters": 1792, "kernel_size": [1, 1], "strides": [1, 1], "padding": "same", "data_format": "channels_last", "dilation_rate": [1, 1], "activation": "linear", "use_bias": true, "kernel_initializer": {"class_name": "GlorotUniform", "config": {"seed": null}}, "bias_initializer": {"class_name": "Zeros", "config": {}}, "kernel_regularizer": null, "bias_regularizer": null, "activity_regularizer": null, "kernel_constraint": null, "bias_constraint": null}, "name": "Block8_3_Conv2d_1x1", "inbound_nodes": [[["Block8_3_Concatenate", 0, 0, {}]]]}, {"class_name": "Lambda", "config": {"name": "lambda_38", "trainable": false, "dtype": "float32", "function": ["4wIAAAAAAAAAAAAAAAIAAAACAAAAQwAAAHMIAAAAfAB8ARQAUwApAU6pACkC2gF42gVzY2FsZXIB\nAAAAcgEAAAD6DnNyYy9mYWNlbmV0LnB52gdzY2FsaW5nEAAAAHMCAAAAAAE=\n", null, null], "function_type": "lambda", "module": "__main__", "output_shape": [3, 3, 1792], "output_shape_type": "raw", "output_shape_module": null, "arguments": {"scale": 0.2}}, "name": "lambda_38", "inbound_nodes": [[["Block8_3_Conv2d_1x1", 0, 0, {}]]]}, {"class_name": "Add", "config": {"name": "add_38", "trainable": false, "dtype": "float32"}, "name": "add_38", "inbound_nodes": [[["Block8_2_Activation", 0, 0, {}], ["lambda_38", 0, 0, {}]]]}, {"class_name": "Activation", "config": {"name": "Block8_3_Activation", "trainable": false, "dtype": "float32", "activation": "relu"}, "name": "Block8_3_Activation", "inbound_nodes": [[["add_38", 0, 0, {}]]]}, {"class_name": "Conv2D", "config": {"name": "Block8_4_Branch_4_Conv2d_0a_1x1", "trainable": false, "dtype": "float32", "filters": 192, "kernel_size": [1, 1], "strides": [1, 1], "padding": "same", "data_format": "channels_last", "dilation_rate": [1, 1], "activation": "linear", "use_bias": false, "kernel_initializer": {"class_name": "GlorotUniform", "config": {"seed": null}}, "bias_initializer": {"class_name": "Zeros", "config": {}}, "kernel_regularizer": null, "bias_regularizer": null, "activity_regularizer": null, "kernel_constraint": null, "bias_constraint": null}, "name": "Block8_4_Branch_4_Conv2d_0a_1x1", "inbound_nodes": [[["Block8_3_Activation", 0, 0, {}]]]}, {"class_name": "BatchNormalization", "config": {"name": "Block8_4_Branch_4_Conv2d_0a_1x1_BatchNorm", "trainable": false, "dtype": "float32", "axis": [3], "momentum": 0.995, "epsilon": 0.001, "center": true, "scale": false, "beta_initializer": {"class_name": "Zeros", "config": {}}, "gamma_initializer": {"class_name": "Ones", "config": {}}, "moving_mean_initializer": {"class_name": "Zeros", "config": {}}, "moving_variance_initializer": {"class_name": "Ones", "config": {}}, "beta_regularizer": null, "gamma_regularizer": null, "beta_constraint": null, "gamma_constraint": null}, "name": "Block8_4_Branch_4_Conv2d_0a_1x1_BatchNorm", "inbound_nodes": [[["Block8_4_Branch_4_Conv2d_0a_1x1", 0, 0, {}]]]}, {"class_name": "Activation", "config": {"name": "Block8_4_Branch_4_Conv2d_0a_1x1_Activation", "trainable": false, "dtype": "float32", "activation": "relu"}, "name": "Block8_4_Branch_4_Conv2d_0a_1x1_Activation", "inbound_nodes": [[["Block8_4_Branch_4_Conv2d_0a_1x1_BatchNorm", 0, 0, {}]]]}, {"class_name": "Conv2D", "config": {"name": "Block8_4_Branch_4_Conv2d_0b_1x3", "trainable": false, "dtype": "float32", "filters": 192, "kernel_size": [1, 3], "strides": [1, 1], "padding": "same", "data_format": "channels_last", "dilation_rate": [1, 1], "activation": "linear", "use_bias": false, "kernel_initializer": {"class_name": "GlorotUniform", "config": {"seed": null}}, "bias_initializer": {"class_name": "Zeros", "config": {}}, "kernel_regularizer": null, "bias_regularizer": null, "activity_regularizer": null, "kernel_constraint": null, "bias_constraint": null}, "name": "Block8_4_Branch_4_Conv2d_0b_1x3", "inbound_nodes": [[["Block8_4_Branch_4_Conv2d_0a_1x1_Activation", 0, 0, {}]]]}, {"class_name": "BatchNormalization", "config": {"name": "Block8_4_Branch_4_Conv2d_0b_1x3_BatchNorm", "trainable": false, "dtype": "float32", "axis": [3], "momentum": 0.995, "epsilon": 0.001, "center": true, "scale": false, "beta_initializer": {"class_name": "Zeros", "config": {}}, "gamma_initializer": {"class_name": "Ones", "config": {}}, "moving_mean_initializer": {"class_name": "Zeros", "config": {}}, "moving_variance_initializer": {"class_name": "Ones", "config": {}}, "beta_regularizer": null, "gamma_regularizer": null, "beta_constraint": null, "gamma_constraint": null}, "name": "Block8_4_Branch_4_Conv2d_0b_1x3_BatchNorm", "inbound_nodes": [[["Block8_4_Branch_4_Conv2d_0b_1x3", 0, 0, {}]]]}, {"class_name": "Activation", "config": {"name": "Block8_4_Branch_4_Conv2d_0b_1x3_Activation", "trainable": false, "dtype": "float32", "activation": "relu"}, "name": "Block8_4_Branch_4_Conv2d_0b_1x3_Activation", "inbound_nodes": [[["Block8_4_Branch_4_Conv2d_0b_1x3_BatchNorm", 0, 0, {}]]]}, {"class_name": "Conv2D", "config": {"name": "Block8_4_Branch_0_Conv2d_1x1", "trainable": false, "dtype": "float32", "filters": 192, "kernel_size": [1, 1], "strides": [1, 1], "padding": "same", "data_format": "channels_last", "dilation_rate": [1, 1], "activation": "linear", "use_bias": false, "kernel_initializer": {"class_name": "GlorotUniform", "config": {"seed": null}}, "bias_initializer": {"class_name": "Zeros", "config": {}}, "kernel_regularizer": null, "bias_regularizer": null, "activity_regularizer": null, "kernel_constraint": null, "bias_constraint": null}, "name": "Block8_4_Branch_0_Conv2d_1x1", "inbound_nodes": [[["Block8_3_Activation", 0, 0, {}]]]}, {"class_name": "Conv2D", "config": {"name": "Block8_4_Branch_4_Conv2d_0c_3x1", "trainable": false, "dtype": "float32", "filters": 192, "kernel_size": [3, 1], "strides": [1, 1], "padding": "same", "data_format": "channels_last", "dilation_rate": [1, 1], "activation": "linear", "use_bias": false, "kernel_initializer": {"class_name": "GlorotUniform", "config": {"seed": null}}, "bias_initializer": {"class_name": "Zeros", "config": {}}, "kernel_regularizer": null, "bias_regularizer": null, "activity_regularizer": null, "kernel_constraint": null, "bias_constraint": null}, "name": "Block8_4_Branch_4_Conv2d_0c_3x1", "inbound_nodes": [[["Block8_4_Branch_4_Conv2d_0b_1x3_Activation", 0, 0, {}]]]}, {"class_name": "BatchNormalization", "config": {"name": "Block8_4_Branch_0_Conv2d_1x1_BatchNorm", "trainable": false, "dtype": "float32", "axis": [3], "momentum": 0.995, "epsilon": 0.001, "center": true, "scale": false, "beta_initializer": {"class_name": "Zeros", "config": {}}, "gamma_initializer": {"class_name": "Ones", "config": {}}, "moving_mean_initializer": {"class_name": "Zeros", "config": {}}, "moving_variance_initializer": {"class_name": "Ones", "config": {}}, "beta_regularizer": null, "gamma_regularizer": null, "beta_constraint": null, "gamma_constraint": null}, "name": "Block8_4_Branch_0_Conv2d_1x1_BatchNorm", "inbound_nodes": [[["Block8_4_Branch_0_Conv2d_1x1", 0, 0, {}]]]}, {"class_name": "BatchNormalization", "config": {"name": "Block8_4_Branch_4_Conv2d_0c_3x1_BatchNorm", "trainable": false, "dtype": "float32", "axis": [3], "momentum": 0.995, "epsilon": 0.001, "center": true, "scale": false, "beta_initializer": {"class_name": "Zeros", "config": {}}, "gamma_initializer": {"class_name": "Ones", "config": {}}, "moving_mean_initializer": {"class_name": "Zeros", "config": {}}, "moving_variance_initializer": {"class_name": "Ones", "config": {}}, "beta_regularizer": null, "gamma_regularizer": null, "beta_constraint": null, "gamma_constraint": null}, "name": "Block8_4_Branch_4_Conv2d_0c_3x1_BatchNorm", "inbound_nodes": [[["Block8_4_Branch_4_Conv2d_0c_3x1", 0, 0, {}]]]}, {"class_name": "Activation", "config": {"name": "Block8_4_Branch_0_Conv2d_1x1_Activation", "trainable": false, "dtype": "float32", "activation": "relu"}, "name": "Block8_4_Branch_0_Conv2d_1x1_Activation", "inbound_nodes": [[["Block8_4_Branch_0_Conv2d_1x1_BatchNorm", 0, 0, {}]]]}, {"class_name": "Activation", "config": {"name": "Block8_4_Branch_4_Conv2d_0c_3x1_Activation", "trainable": false, "dtype": "float32", "activation": "relu"}, "name": "Block8_4_Branch_4_Conv2d_0c_3x1_Activation", "inbound_nodes": [[["Block8_4_Branch_4_Conv2d_0c_3x1_BatchNorm", 0, 0, {}]]]}, {"class_name": "Concatenate", "config": {"name": "Block8_4_Concatenate", "trainable": false, "dtype": "float32", "axis": 3}, "name": "Block8_4_Concatenate", "inbound_nodes": [[["Block8_4_Branch_0_Conv2d_1x1_Activation", 0, 0, {}], ["Block8_4_Branch_4_Conv2d_0c_3x1_Activation", 0, 0, {}]]]}, {"class_name": "Conv2D", "config": {"name": "Block8_4_Conv2d_1x1", "trainable": false, "dtype": "float32", "filters": 1792, "kernel_size": [1, 1], "strides": [1, 1], "padding": "same", "data_format": "channels_last", "dilation_rate": [1, 1], "activation": "linear", "use_bias": true, "kernel_initializer": {"class_name": "GlorotUniform", "config": {"seed": null}}, "bias_initializer": {"class_name": "Zeros", "config": {}}, "kernel_regularizer": null, "bias_regularizer": null, "activity_regularizer": null, "kernel_constraint": null, "bias_constraint": null}, "name": "Block8_4_Conv2d_1x1", "inbound_nodes": [[["Block8_4_Concatenate", 0, 0, {}]]]}, {"class_name": "Lambda", "config": {"name": "lambda_39", "trainable": false, "dtype": "float32", "function": ["4wIAAAAAAAAAAAAAAAIAAAACAAAAQwAAAHMIAAAAfAB8ARQAUwApAU6pACkC2gF42gVzY2FsZXIB\nAAAAcgEAAAD6DnNyYy9mYWNlbmV0LnB52gdzY2FsaW5nEAAAAHMCAAAAAAE=\n", null, null], "function_type": "lambda", "module": "__main__", "output_shape": [3, 3, 1792], "output_shape_type": "raw", "output_shape_module": null, "arguments": {"scale": 0.2}}, "name": "lambda_39", "inbound_nodes": [[["Block8_4_Conv2d_1x1", 0, 0, {}]]]}, {"class_name": "Add", "config": {"name": "add_39", "trainable": false, "dtype": "float32"}, "name": "add_39", "inbound_nodes": [[["Block8_3_Activation", 0, 0, {}], ["lambda_39", 0, 0, {}]]]}, {"class_name": "Activation", "config": {"name": "Block8_4_Activation", "trainable": false, "dtype": "float32", "activation": "relu"}, "name": "Block8_4_Activation", "inbound_nodes": [[["add_39", 0, 0, {}]]]}, {"class_name": "Conv2D", "config": {"name": "Block8_5_Branch_5_Conv2d_0a_1x1", "trainable": false, "dtype": "float32", "filters": 192, "kernel_size": [1, 1], "strides": [1, 1], "padding": "same", "data_format": "channels_last", "dilation_rate": [1, 1], "activation": "linear", "use_bias": false, "kernel_initializer": {"class_name": "GlorotUniform", "config": {"seed": null}}, "bias_initializer": {"class_name": "Zeros", "config": {}}, "kernel_regularizer": null, "bias_regularizer": null, "activity_regularizer": null, "kernel_constraint": null, "bias_constraint": null}, "name": "Block8_5_Branch_5_Conv2d_0a_1x1", "inbound_nodes": [[["Block8_4_Activation", 0, 0, {}]]]}, {"class_name": "BatchNormalization", "config": {"name": "Block8_5_Branch_5_Conv2d_0a_1x1_BatchNorm", "trainable": false, "dtype": "float32", "axis": [3], "momentum": 0.995, "epsilon": 0.001, "center": true, "scale": false, "beta_initializer": {"class_name": "Zeros", "config": {}}, "gamma_initializer": {"class_name": "Ones", "config": {}}, "moving_mean_initializer": {"class_name": "Zeros", "config": {}}, "moving_variance_initializer": {"class_name": "Ones", "config": {}}, "beta_regularizer": null, "gamma_regularizer": null, "beta_constraint": null, "gamma_constraint": null}, "name": "Block8_5_Branch_5_Conv2d_0a_1x1_BatchNorm", "inbound_nodes": [[["Block8_5_Branch_5_Conv2d_0a_1x1", 0, 0, {}]]]}, {"class_name": "Activation", "config": {"name": "Block8_5_Branch_5_Conv2d_0a_1x1_Activation", "trainable": false, "dtype": "float32", "activation": "relu"}, "name": "Block8_5_Branch_5_Conv2d_0a_1x1_Activation", "inbound_nodes": [[["Block8_5_Branch_5_Conv2d_0a_1x1_BatchNorm", 0, 0, {}]]]}, {"class_name": "Conv2D", "config": {"name": "Block8_5_Branch_5_Conv2d_0b_1x3", "trainable": false, "dtype": "float32", "filters": 192, "kernel_size": [1, 3], "strides": [1, 1], "padding": "same", "data_format": "channels_last", "dilation_rate": [1, 1], "activation": "linear", "use_bias": false, "kernel_initializer": {"class_name": "GlorotUniform", "config": {"seed": null}}, "bias_initializer": {"class_name": "Zeros", "config": {}}, "kernel_regularizer": null, "bias_regularizer": null, "activity_regularizer": null, "kernel_constraint": null, "bias_constraint": null}, "name": "Block8_5_Branch_5_Conv2d_0b_1x3", "inbound_nodes": [[["Block8_5_Branch_5_Conv2d_0a_1x1_Activation", 0, 0, {}]]]}, {"class_name": "BatchNormalization", "config": {"name": "Block8_5_Branch_5_Conv2d_0b_1x3_BatchNorm", "trainable": false, "dtype": "float32", "axis": [3], "momentum": 0.995, "epsilon": 0.001, "center": true, "scale": false, "beta_initializer": {"class_name": "Zeros", "config": {}}, "gamma_initializer": {"class_name": "Ones", "config": {}}, "moving_mean_initializer": {"class_name": "Zeros", "config": {}}, "moving_variance_initializer": {"class_name": "Ones", "config": {}}, "beta_regularizer": null, "gamma_regularizer": null, "beta_constraint": null, "gamma_constraint": null}, "name": "Block8_5_Branch_5_Conv2d_0b_1x3_BatchNorm", "inbound_nodes": [[["Block8_5_Branch_5_Conv2d_0b_1x3", 0, 0, {}]]]}, {"class_name": "Activation", "config": {"name": "Block8_5_Branch_5_Conv2d_0b_1x3_Activation", "trainable": false, "dtype": "float32", "activation": "relu"}, "name": "Block8_5_Branch_5_Conv2d_0b_1x3_Activation", "inbound_nodes": [[["Block8_5_Branch_5_Conv2d_0b_1x3_BatchNorm", 0, 0, {}]]]}, {"class_name": "Conv2D", "config": {"name": "Block8_5_Branch_0_Conv2d_1x1", "trainable": false, "dtype": "float32", "filters": 192, "kernel_size": [1, 1], "strides": [1, 1], "padding": "same", "data_format": "channels_last", "dilation_rate": [1, 1], "activation": "linear", "use_bias": false, "kernel_initializer": {"class_name": "GlorotUniform", "config": {"seed": null}}, "bias_initializer": {"class_name": "Zeros", "config": {}}, "kernel_regularizer": null, "bias_regularizer": null, "activity_regularizer": null, "kernel_constraint": null, "bias_constraint": null}, "name": "Block8_5_Branch_0_Conv2d_1x1", "inbound_nodes": [[["Block8_4_Activation", 0, 0, {}]]]}, {"class_name": "Conv2D", "config": {"name": "Block8_5_Branch_5_Conv2d_0c_3x1", "trainable": false, "dtype": "float32", "filters": 192, "kernel_size": [3, 1], "strides": [1, 1], "padding": "same", "data_format": "channels_last", "dilation_rate": [1, 1], "activation": "linear", "use_bias": false, "kernel_initializer": {"class_name": "GlorotUniform", "config": {"seed": null}}, "bias_initializer": {"class_name": "Zeros", "config": {}}, "kernel_regularizer": null, "bias_regularizer": null, "activity_regularizer": null, "kernel_constraint": null, "bias_constraint": null}, "name": "Block8_5_Branch_5_Conv2d_0c_3x1", "inbound_nodes": [[["Block8_5_Branch_5_Conv2d_0b_1x3_Activation", 0, 0, {}]]]}, {"class_name": "BatchNormalization", "config": {"name": "Block8_5_Branch_0_Conv2d_1x1_BatchNorm", "trainable": false, "dtype": "float32", "axis": [3], "momentum": 0.995, "epsilon": 0.001, "center": true, "scale": false, "beta_initializer": {"class_name": "Zeros", "config": {}}, "gamma_initializer": {"class_name": "Ones", "config": {}}, "moving_mean_initializer": {"class_name": "Zeros", "config": {}}, "moving_variance_initializer": {"class_name": "Ones", "config": {}}, "beta_regularizer": null, "gamma_regularizer": null, "beta_constraint": null, "gamma_constraint": null}, "name": "Block8_5_Branch_0_Conv2d_1x1_BatchNorm", "inbound_nodes": [[["Block8_5_Branch_0_Conv2d_1x1", 0, 0, {}]]]}, {"class_name": "BatchNormalization", "config": {"name": "Block8_5_Branch_5_Conv2d_0c_3x1_BatchNorm", "trainable": false, "dtype": "float32", "axis": [3], "momentum": 0.995, "epsilon": 0.001, "center": true, "scale": false, "beta_initializer": {"class_name": "Zeros", "config": {}}, "gamma_initializer": {"class_name": "Ones", "config": {}}, "moving_mean_initializer": {"class_name": "Zeros", "config": {}}, "moving_variance_initializer": {"class_name": "Ones", "config": {}}, "beta_regularizer": null, "gamma_regularizer": null, "beta_constraint": null, "gamma_constraint": null}, "name": "Block8_5_Branch_5_Conv2d_0c_3x1_BatchNorm", "inbound_nodes": [[["Block8_5_Branch_5_Conv2d_0c_3x1", 0, 0, {}]]]}, {"class_name": "Activation", "config": {"name": "Block8_5_Branch_0_Conv2d_1x1_Activation", "trainable": false, "dtype": "float32", "activation": "relu"}, "name": "Block8_5_Branch_0_Conv2d_1x1_Activation", "inbound_nodes": [[["Block8_5_Branch_0_Conv2d_1x1_BatchNorm", 0, 0, {}]]]}, {"class_name": "Activation", "config": {"name": "Block8_5_Branch_5_Conv2d_0c_3x1_Activation", "trainable": false, "dtype": "float32", "activation": "relu"}, "name": "Block8_5_Branch_5_Conv2d_0c_3x1_Activation", "inbound_nodes": [[["Block8_5_Branch_5_Conv2d_0c_3x1_BatchNorm", 0, 0, {}]]]}, {"class_name": "Concatenate", "config": {"name": "Block8_5_Concatenate", "trainable": false, "dtype": "float32", "axis": 3}, "name": "Block8_5_Concatenate", "inbound_nodes": [[["Block8_5_Branch_0_Conv2d_1x1_Activation", 0, 0, {}], ["Block8_5_Branch_5_Conv2d_0c_3x1_Activation", 0, 0, {}]]]}, {"class_name": "Conv2D", "config": {"name": "Block8_5_Conv2d_1x1", "trainable": true, "dtype": "float32", "filters": 1792, "kernel_size": [1, 1], "strides": [1, 1], "padding": "same", "data_format": "channels_last", "dilation_rate": [1, 1], "activation": "linear", "use_bias": true, "kernel_initializer": {"class_name": "GlorotUniform", "config": {"seed": null}}, "bias_initializer": {"class_name": "Zeros", "config": {}}, "kernel_regularizer": null, "bias_regularizer": null, "activity_regularizer": null, "kernel_constraint": null, "bias_constraint": null}, "name": "Block8_5_Conv2d_1x1", "inbound_nodes": [[["Block8_5_Concatenate", 0, 0, {}]]]}, {"class_name": "Lambda", "config": {"name": "lambda_40", "trainable": true, "dtype": "float32", "function": ["4wIAAAAAAAAAAAAAAAIAAAACAAAAQwAAAHMIAAAAfAB8ARQAUwApAU6pACkC2gF42gVzY2FsZXIB\nAAAAcgEAAAD6DnNyYy9mYWNlbmV0LnB52gdzY2FsaW5nEAAAAHMCAAAAAAE=\n", null, null], "function_type": "lambda", "module": "__main__", "output_shape": [3, 3, 1792], "output_shape_type": "raw", "output_shape_module": null, "arguments": {"scale": 0.2}}, "name": "lambda_40", "inbound_nodes": [[["Block8_5_Conv2d_1x1", 0, 0, {}]]]}, {"class_name": "Add", "config": {"name": "add_40", "trainable": true, "dtype": "float32"}, "name": "add_40", "inbound_nodes": [[["Block8_4_Activation", 0, 0, {}], ["lambda_40", 0, 0, {}]]]}, {"class_name": "Activation", "config": {"name": "Block8_5_Activation", "trainable": true, "dtype": "float32", "activation": "relu"}, "name": "Block8_5_Activation", "inbound_nodes": [[["add_40", 0, 0, {}]]]}, {"class_name": "Conv2D", "config": {"name": "Block8_6_Branch_1_Conv2d_0a_1x1", "trainable": true, "dtype": "float32", "filters": 192, "kernel_size": [1, 1], "strides": [1, 1], "padding": "same", "data_format": "channels_last", "dilation_rate": [1, 1], "activation": "linear", "use_bias": false, "kernel_initializer": {"class_name": "GlorotUniform", "config": {"seed": null}}, "bias_initializer": {"class_name": "Zeros", "config": {}}, "kernel_regularizer": null, "bias_regularizer": null, "activity_regularizer": null, "kernel_constraint": null, "bias_constraint": null}, "name": "Block8_6_Branch_1_Conv2d_0a_1x1", "inbound_nodes": [[["Block8_5_Activation", 0, 0, {}]]]}, {"class_name": "BatchNormalization", "config": {"name": "Block8_6_Branch_1_Conv2d_0a_1x1_BatchNorm", "trainable": true, "dtype": "float32", "axis": [3], "momentum": 0.995, "epsilon": 0.001, "center": true, "scale": false, "beta_initializer": {"class_name": "Zeros", "config": {}}, "gamma_initializer": {"class_name": "Ones", "config": {}}, "moving_mean_initializer": {"class_name": "Zeros", "config": {}}, "moving_variance_initializer": {"class_name": "Ones", "config": {}}, "beta_regularizer": null, "gamma_regularizer": null, "beta_constraint": null, "gamma_constraint": null}, "name": "Block8_6_Branch_1_Conv2d_0a_1x1_BatchNorm", "inbound_nodes": [[["Block8_6_Branch_1_Conv2d_0a_1x1", 0, 0, {}]]]}, {"class_name": "Activation", "config": {"name": "Block8_6_Branch_1_Conv2d_0a_1x1_Activation", "trainable": true, "dtype": "float32", "activation": "relu"}, "name": "Block8_6_Branch_1_Conv2d_0a_1x1_Activation", "inbound_nodes": [[["Block8_6_Branch_1_Conv2d_0a_1x1_BatchNorm", 0, 0, {}]]]}, {"class_name": "Conv2D", "config": {"name": "Block8_6_Branch_1_Conv2d_0b_1x3", "trainable": true, "dtype": "float32", "filters": 192, "kernel_size": [1, 3], "strides": [1, 1], "padding": "same", "data_format": "channels_last", "dilation_rate": [1, 1], "activation": "linear", "use_bias": false, "kernel_initializer": {"class_name": "GlorotUniform", "config": {"seed": null}}, "bias_initializer": {"class_name": "Zeros", "config": {}}, "kernel_regularizer": null, "bias_regularizer": null, "activity_regularizer": null, "kernel_constraint": null, "bias_constraint": null}, "name": "Block8_6_Branch_1_Conv2d_0b_1x3", "inbound_nodes": [[["Block8_6_Branch_1_Conv2d_0a_1x1_Activation", 0, 0, {}]]]}, {"class_name": "BatchNormalization", "config": {"name": "Block8_6_Branch_1_Conv2d_0b_1x3_BatchNorm", "trainable": true, "dtype": "float32", "axis": [3], "momentum": 0.995, "epsilon": 0.001, "center": true, "scale": false, "beta_initializer": {"class_name": "Zeros", "config": {}}, "gamma_initializer": {"class_name": "Ones", "config": {}}, "moving_mean_initializer": {"class_name": "Zeros", "config": {}}, "moving_variance_initializer": {"class_name": "Ones", "config": {}}, "beta_regularizer": null, "gamma_regularizer": null, "beta_constraint": null, "gamma_constraint": null}, "name": "Block8_6_Branch_1_Conv2d_0b_1x3_BatchNorm", "inbound_nodes": [[["Block8_6_Branch_1_Conv2d_0b_1x3", 0, 0, {}]]]}, {"class_name": "Activation", "config": {"name": "Block8_6_Branch_1_Conv2d_0b_1x3_Activation", "trainable": true, "dtype": "float32", "activation": "relu"}, "name": "Block8_6_Branch_1_Conv2d_0b_1x3_Activation", "inbound_nodes": [[["Block8_6_Branch_1_Conv2d_0b_1x3_BatchNorm", 0, 0, {}]]]}, {"class_name": "Conv2D", "config": {"name": "Block8_6_Branch_0_Conv2d_1x1", "trainable": true, "dtype": "float32", "filters": 192, "kernel_size": [1, 1], "strides": [1, 1], "padding": "same", "data_format": "channels_last", "dilation_rate": [1, 1], "activation": "linear", "use_bias": false, "kernel_initializer": {"class_name": "GlorotUniform", "config": {"seed": null}}, "bias_initializer": {"class_name": "Zeros", "config": {}}, "kernel_regularizer": null, "bias_regularizer": null, "activity_regularizer": null, "kernel_constraint": null, "bias_constraint": null}, "name": "Block8_6_Branch_0_Conv2d_1x1", "inbound_nodes": [[["Block8_5_Activation", 0, 0, {}]]]}, {"class_name": "Conv2D", "config": {"name": "Block8_6_Branch_1_Conv2d_0c_3x1", "trainable": true, "dtype": "float32", "filters": 192, "kernel_size": [3, 1], "strides": [1, 1], "padding": "same", "data_format": "channels_last", "dilation_rate": [1, 1], "activation": "linear", "use_bias": false, "kernel_initializer": {"class_name": "GlorotUniform", "config": {"seed": null}}, "bias_initializer": {"class_name": "Zeros", "config": {}}, "kernel_regularizer": null, "bias_regularizer": null, "activity_regularizer": null, "kernel_constraint": null, "bias_constraint": null}, "name": "Block8_6_Branch_1_Conv2d_0c_3x1", "inbound_nodes": [[["Block8_6_Branch_1_Conv2d_0b_1x3_Activation", 0, 0, {}]]]}, {"class_name": "BatchNormalization", "config": {"name": "Block8_6_Branch_0_Conv2d_1x1_BatchNorm", "trainable": true, "dtype": "float32", "axis": [3], "momentum": 0.995, "epsilon": 0.001, "center": true, "scale": false, "beta_initializer": {"class_name": "Zeros", "config": {}}, "gamma_initializer": {"class_name": "Ones", "config": {}}, "moving_mean_initializer": {"class_name": "Zeros", "config": {}}, "moving_variance_initializer": {"class_name": "Ones", "config": {}}, "beta_regularizer": null, "gamma_regularizer": null, "beta_constraint": null, "gamma_constraint": null}, "name": "Block8_6_Branch_0_Conv2d_1x1_BatchNorm", "inbound_nodes": [[["Block8_6_Branch_0_Conv2d_1x1", 0, 0, {}]]]}, {"class_name": "BatchNormalization", "config": {"name": "Block8_6_Branch_1_Conv2d_0c_3x1_BatchNorm", "trainable": true, "dtype": "float32", "axis": [3], "momentum": 0.995, "epsilon": 0.001, "center": true, "scale": false, "beta_initializer": {"class_name": "Zeros", "config": {}}, "gamma_initializer": {"class_name": "Ones", "config": {}}, "moving_mean_initializer": {"class_name": "Zeros", "config": {}}, "moving_variance_initializer": {"class_name": "Ones", "config": {}}, "beta_regularizer": null, "gamma_regularizer": null, "beta_constraint": null, "gamma_constraint": null}, "name": "Block8_6_Branch_1_Conv2d_0c_3x1_BatchNorm", "inbound_nodes": [[["Block8_6_Branch_1_Conv2d_0c_3x1", 0, 0, {}]]]}, {"class_name": "Activation", "config": {"name": "Block8_6_Branch_0_Conv2d_1x1_Activation", "trainable": true, "dtype": "float32", "activation": "relu"}, "name": "Block8_6_Branch_0_Conv2d_1x1_Activation", "inbound_nodes": [[["Block8_6_Branch_0_Conv2d_1x1_BatchNorm", 0, 0, {}]]]}, {"class_name": "Activation", "config": {"name": "Block8_6_Branch_1_Conv2d_0c_3x1_Activation", "trainable": true, "dtype": "float32", "activation": "relu"}, "name": "Block8_6_Branch_1_Conv2d_0c_3x1_Activation", "inbound_nodes": [[["Block8_6_Branch_1_Conv2d_0c_3x1_BatchNorm", 0, 0, {}]]]}, {"class_name": "Concatenate", "config": {"name": "Block8_6_Concatenate", "trainable": true, "dtype": "float32", "axis": 3}, "name": "Block8_6_Concatenate", "inbound_nodes": [[["Block8_6_Branch_0_Conv2d_1x1_Activation", 0, 0, {}], ["Block8_6_Branch_1_Conv2d_0c_3x1_Activation", 0, 0, {}]]]}, {"class_name": "Conv2D", "config": {"name": "Block8_6_Conv2d_1x1", "trainable": true, "dtype": "float32", "filters": 1792, "kernel_size": [1, 1], "strides": [1, 1], "padding": "same", "data_format": "channels_last", "dilation_rate": [1, 1], "activation": "linear", "use_bias": true, "kernel_initializer": {"class_name": "GlorotUniform", "config": {"seed": null}}, "bias_initializer": {"class_name": "Zeros", "config": {}}, "kernel_regularizer": null, "bias_regularizer": null, "activity_regularizer": null, "kernel_constraint": null, "bias_constraint": null}, "name": "Block8_6_Conv2d_1x1", "inbound_nodes": [[["Block8_6_Concatenate", 0, 0, {}]]]}, {"class_name": "Lambda", "config": {"name": "lambda_41", "trainable": true, "dtype": "float32", "function": ["4wIAAAAAAAAAAAAAAAIAAAACAAAAQwAAAHMIAAAAfAB8ARQAUwApAU6pACkC2gF42gVzY2FsZXIB\nAAAAcgEAAAD6DnNyYy9mYWNlbmV0LnB52gdzY2FsaW5nEAAAAHMCAAAAAAE=\n", null, null], "function_type": "lambda", "module": "__main__", "output_shape": [3, 3, 1792], "output_shape_type": "raw", "output_shape_module": null, "arguments": {"scale": 1}}, "name": "lambda_41", "inbound_nodes": [[["Block8_6_Conv2d_1x1", 0, 0, {}]]]}, {"class_name": "Add", "config": {"name": "add_41", "trainable": true, "dtype": "float32"}, "name": "add_41", "inbound_nodes": [[["Block8_5_Activation", 0, 0, {}], ["lambda_41", 0, 0, {}]]]}], "input_layers": [["input_6", 0, 0]], "output_layers": [["add_41", 0, 0]]}, "name": "model", "inbound_nodes": [[["input_1", 0, 0, {}]]]}, {"class_name": "GlobalAveragePooling2D", "config": {"name": "global_average_pooling2d", "trainable": true, "dtype": "float32", "data_format": "channels_last"}, "name": "global_average_pooling2d", "inbound_nodes": [[["model", 1, 0, {}]]]}, {"class_name": "GlobalAveragePooling2D", "config": {"name": "global_average_pooling2d_2", "trainable": true, "dtype": "float32", "data_format": "channels_last"}, "name": "global_average_pooling2d_2", "inbound_nodes": [[["model", 1, 0, {}]]]}, {"class_name": "GlobalAveragePooling2D", "config": {"name": "global_average_pooling2d_1", "trainable": true, "dtype": "float32", "data_format": "channels_last"}, "name": "global_average_pooling2d_1", "inbound_nodes": [[["model", 1, 0, {}]]]}, {"class_name": "Dense", "config": {"name": "dense", "trainable": true, "dtype": "float32", "units": 512, "activation": "relu", "use_bias": true, "kernel_initializer": {"class_name": "GlorotUniform", "config": {"seed": null}}, "bias_initializer": {"class_name": "Zeros", "config": {}}, "kernel_regularizer": null, "bias_regularizer": null, "activity_regularizer": null, "kernel_constraint": null, "bias_constraint": null}, "name": "dense", "inbound_nodes": [[["global_average_pooling2d", 0, 0, {}]]]}, {"class_name": "Dense", "config": {"name": "dense_4", "trainable": true, "dtype": "float32", "units": 512, "activation": "relu", "use_bias": true, "kernel_initializer": {"class_name": "GlorotUniform", "config": {"seed": null}}, "bias_initializer": {"class_name": "Zeros", "config": {}}, "kernel_regularizer": null, "bias_regularizer": null, "activity_regularizer": null, "kernel_constraint": null, "bias_constraint": null}, "name": "dense_4", "inbound_nodes": [[["global_average_pooling2d_2", 0, 0, {}]]]}, {"class_name": "Dense", "config": {"name": "dense_2", "trainable": true, "dtype": "float32", "units": 512, "activation": "relu", "use_bias": true, "kernel_initializer": {"class_name": "GlorotUniform", "config": {"seed": null}}, "bias_initializer": {"class_name": "Zeros", "config": {}}, "kernel_regularizer": null, "bias_regularizer": null, "activity_regularizer": null, "kernel_constraint": null, "bias_constraint": null}, "name": "dense_2", "inbound_nodes": [[["global_average_pooling2d_1", 0, 0, {}]]]}, {"class_name": "BatchNormalization", "config": {"name": "batch_normalization", "trainable": true, "dtype": "float32", "axis": [1], "momentum": 0.99, "epsilon": 0.001, "center": true, "scale": true, "beta_initializer": {"class_name": "Zeros", "config": {}}, "gamma_initializer": {"class_name": "Ones", "config": {}}, "moving_mean_initializer": {"class_name": "Zeros", "config": {}}, "moving_variance_initializer": {"class_name": "Ones", "config": {}}, "beta_regularizer": null, "gamma_regularizer": null, "beta_constraint": null, "gamma_constraint": null}, "name": "batch_normalization", "inbound_nodes": [[["dense", 0, 0, {}]]]}, {"class_name": "BatchNormalization", "config": {"name": "batch_normalization_4", "trainable": true, "dtype": "float32", "axis": [1], "momentum": 0.99, "epsilon": 0.001, "center": true, "scale": true, "beta_initializer": {"class_name": "Zeros", "config": {}}, "gamma_initializer": {"class_name": "Ones", "config": {}}, "moving_mean_initializer": {"class_name": "Zeros", "config": {}}, "moving_variance_initializer": {"class_name": "Ones", "config": {}}, "beta_regularizer": null, "gamma_regularizer": null, "beta_constraint": null, "gamma_constraint": null}, "name": "batch_normalization_4", "inbound_nodes": [[["dense_4", 0, 0, {}]]]}, {"class_name": "BatchNormalization", "config": {"name": "batch_normalization_2", "trainable": true, "dtype": "float32", "axis": [1], "momentum": 0.99, "epsilon": 0.001, "center": true, "scale": true, "beta_initializer": {"class_name": "Zeros", "config": {}}, "gamma_initializer": {"class_name": "Ones", "config": {}}, "moving_mean_initializer": {"class_name": "Zeros", "config": {}}, "moving_variance_initializer": {"class_name": "Ones", "config": {}}, "beta_regularizer": null, "gamma_regularizer": null, "beta_constraint": null, "gamma_constraint": null}, "name": "batch_normalization_2", "inbound_nodes": [[["dense_2", 0, 0, {}]]]}, {"class_name": "Dropout", "config": {"name": "dropout", "trainable": true, "dtype": "float32", "rate": 0.3, "noise_shape": null, "seed": null}, "name": "dropout", "inbound_nodes": [[["batch_normalization", 0, 0, {}]]]}, {"class_name": "Dropout", "config": {"name": "dropout_4", "trainable": true, "dtype": "float32", "rate": 0.3, "noise_shape": null, "seed": null}, "name": "dropout_4", "inbound_nodes": [[["batch_normalization_4", 0, 0, {}]]]}, {"class_name": "Dropout", "config": {"name": "dropout_2", "trainable": true, "dtype": "float32", "rate": 0.3, "noise_shape": null, "seed": null}, "name": "dropout_2", "inbound_nodes": [[["batch_normalization_2", 0, 0, {}]]]}, {"class_name": "Dense", "config": {"name": "dense_1", "trainable": true, "dtype": "float32", "units": 512, "activation": "relu", "use_bias": true, "kernel_initializer": {"class_name": "GlorotUniform", "config": {"seed": null}}, "bias_initializer": {"class_name": "Zeros", "config": {}}, "kernel_regularizer": null, "bias_regularizer": null, "activity_regularizer": null, "kernel_constraint": null, "bias_constraint": null}, "name": "dense_1", "inbound_nodes": [[["dropout", 0, 0, {}]]]}, {"class_name": "Dense", "config": {"name": "dense_5", "trainable": true, "dtype": "float32", "units": 512, "activation": "relu", "use_bias": true, "kernel_initializer": {"class_name": "GlorotUniform", "config": {"seed": null}}, "bias_initializer": {"class_name": "Zeros", "config": {}}, "kernel_regularizer": null, "bias_regularizer": null, "activity_regularizer": null, "kernel_constraint": null, "bias_constraint": null}, "name": "dense_5", "inbound_nodes": [[["dropout_4", 0, 0, {}]]]}, {"class_name": "Dense", "config": {"name": "dense_3", "trainable": true, "dtype": "float32", "units": 512, "activation": "relu", "use_bias": true, "kernel_initializer": {"class_name": "GlorotUniform", "config": {"seed": null}}, "bias_initializer": {"class_name": "Zeros", "config": {}}, "kernel_regularizer": null, "bias_regularizer": null, "activity_regularizer": null, "kernel_constraint": null, "bias_constraint": null}, "name": "dense_3", "inbound_nodes": [[["dropout_2", 0, 0, {}]]]}, {"class_name": "BatchNormalization", "config": {"name": "batch_normalization_1", "trainable": true, "dtype": "float32", "axis": [1], "momentum": 0.99, "epsilon": 0.001, "center": true, "scale": true, "beta_initializer": {"class_name": "Zeros", "config": {}}, "gamma_initializer": {"class_name": "Ones", "config": {}}, "moving_mean_initializer": {"class_name": "Zeros", "config": {}}, "moving_variance_initializer": {"class_name": "Ones", "config": {}}, "beta_regularizer": null, "gamma_regularizer": null, "beta_constraint": null, "gamma_constraint": null}, "name": "batch_normalization_1", "inbound_nodes": [[["dense_1", 0, 0, {}]]]}, {"class_name": "BatchNormalization", "config": {"name": "batch_normalization_5", "trainable": true, "dtype": "float32", "axis": [1], "momentum": 0.99, "epsilon": 0.001, "center": true, "scale": true, "beta_initializer": {"class_name": "Zeros", "config": {}}, "gamma_initializer": {"class_name": "Ones", "config": {}}, "moving_mean_initializer": {"class_name": "Zeros", "config": {}}, "moving_variance_initializer": {"class_name": "Ones", "config": {}}, "beta_regularizer": null, "gamma_regularizer": null, "beta_constraint": null, "gamma_constraint": null}, "name": "batch_normalization_5", "inbound_nodes": [[["dense_5", 0, 0, {}]]]}, {"class_name": "BatchNormalization", "config": {"name": "batch_normalization_3", "trainable": true, "dtype": "float32", "axis": [1], "momentum": 0.99, "epsilon": 0.001, "center": true, "scale": true, "beta_initializer": {"class_name": "Zeros", "config": {}}, "gamma_initializer": {"class_name": "Ones", "config": {}}, "moving_mean_initializer": {"class_name": "Zeros", "config": {}}, "moving_variance_initializer": {"class_name": "Ones", "config": {}}, "beta_regularizer": null, "gamma_regularizer": null, "beta_constraint": null, "gamma_constraint": null}, "name": "batch_normalization_3", "inbound_nodes": [[["dense_3", 0, 0, {}]]]}, {"class_name": "Dropout", "config": {"name": "dropout_1", "trainable": true, "dtype": "float32", "rate": 0.3, "noise_shape": null, "seed": null}, "name": "dropout_1", "inbound_nodes": [[["batch_normalization_1", 0, 0, {}]]]}, {"class_name": "Dropout", "config": {"name": "dropout_5", "trainable": true, "dtype": "float32", "rate": 0.3, "noise_shape": null, "seed": null}, "name": "dropout_5", "inbound_nodes": [[["batch_normalization_5", 0, 0, {}]]]}, {"class_name": "Dropout", "config": {"name": "dropout_3", "trainable": true, "dtype": "float32", "rate": 0.3, "noise_shape": null, "seed": null}, "name": "dropout_3", "inbound_nodes": [[["batch_normalization_3", 0, 0, {}]]]}, {"class_name": "Dense", "config": {"name": "age_out", "trainable": true, "dtype": "float32", "units": 1, "activation": "linear", "use_bias": true, "kernel_initializer": {"class_name": "GlorotUniform", "config": {"seed": null}}, "bias_initializer": {"class_name": "Zeros", "config": {}}, "kernel_regularizer": null, "bias_regularizer": null, "activity_regularizer": null, "kernel_constraint": null, "bias_constraint": null}, "name": "age_out", "inbound_nodes": [[["dropout_1", 0, 0, {}]]]}, {"class_name": "Dense", "config": {"name": "race_out", "trainable": true, "dtype": "float32", "units": 5, "activation": "sigmoid", "use_bias": true, "kernel_initializer": {"class_name": "GlorotUniform", "config": {"seed": null}}, "bias_initializer": {"class_name": "Zeros", "config": {}}, "kernel_regularizer": null, "bias_regularizer": null, "activity_regularizer": null, "kernel_constraint": null, "bias_constraint": null}, "name": "race_out", "inbound_nodes": [[["dropout_5", 0, 0, {}]]]}, {"class_name": "Dense", "config": {"name": "gender_out", "trainable": true, "dtype": "float32", "units": 2, "activation": "sigmoid", "use_bias": true, "kernel_initializer": {"class_name": "GlorotUniform", "config": {"seed": null}}, "bias_initializer": {"class_name": "Zeros", "config": {}}, "kernel_regularizer": null, "bias_regularizer": null, "activity_regularizer": null, "kernel_constraint": null, "bias_constraint": null}, "name": "gender_out", "inbound_nodes": [[["dropout_3", 0, 0, {}]]]}], "input_layers": [["input_1", 0, 0]], "output_layers": [["age_out", 0, 0], ["race_out", 0, 0], ["gender_out", 0, 0]]}, "keras_version": "2.3.0-tf", "backend": "tensorflow"}